train/autopilot.pt (torch_old, 548040 bytes, 7 tensors)

conv1.weight f4 [16, 3, 3, 3]
00000000: a60e 90bc 2ee8 a13d 20ce 833b 6182 e43c
00000010: 304f 40be ba00 0dbe 95b5 933d cf6a 753d
00000020: 90b3 06bd 4543 c53d 6c26 f23d 5068 25be
00000030: 7f8c 04be 2387 f83d a183 39be 2fb1 393e
00000040: 9b60 d0bd 40df 0bbe b982 1cbe bf32 f43d
00000050: ca55 bf3d 1adc 0e3d c4cc c4bd 487a 1abe
00000060: f547 443d 298e 6a3b 0044 ec3c a9fe 023e
00000070: 8d90 e6bd c8e7 4bbd 99d7 e33d 1e9e 093c
00000080: 57d7 27be 18cb 1abe 4cd4 a7bc e2dc d43d
00000090: 1251 c03d 50a3 d33c 72cc c13d 5f67 a7bd
000000a0: fa0d dd3d 642d 28be 81ab 3d3c 08a9 2b3d
000000b0: 27f3 43be c0f4 21be c4b5 39be 24b0 babd
000000c0: 2049 2e3d b55e e9bc 6e2a 803d 2427 4a3d
000000d0: fdd0 153e b0e9 6fbd 09ce 17be 9770 1e3e
000000e0: 5313 8dbd 3654 37bd 987f 1abe f6ab 01be
000000f0: e33c 12be 1a10 debd e43e bc3d ff40 eebd
00000100: ccb8 a1bc 3c36 33be 1f65 ff3d c571 c1bc
00000110: fe50 e43c eac9 b73c 1cc0 293e ef6b 203e
00000120: 8034 b6bd 8e77 1b3e 665f eb3d 13d0 243d
00000130: 957f 3d3e 6da1 32be 12ff 08be fc85 613d
00000140: 90e3 9c3d 4066 1ebd 465c d83d 8f9f afbc
00000150: 276f 783a f5f7 013e a35a 0dbe deb2 1c3e
00000160: 9d1e 323e e967 673d ee5d 10be f524 2c3e
00000170: 1fee 19be 1334 0e3e d0e6 723d 2138 b33c
00000180: 4c3a 37bd 50f9 18be 5e05 363e 88fb 9e3d
00000190: 35a4 00bd 392c 423d c49b 293e 8e15 2b3c
000001a0: 2225 e3bc 0763 163e 0f56 eebd 5f60 353e
000001b0: 3fdb e03d 6cd6 993c 8b7e d0bd ee6a 83bd
000001c0: dc4a 9cbd 2d3f eebd 54be 51bd d560 fbbd
000001d0: 5003 36bd e992 213d a50f 8abd 8b57 0dbd
000001e0: b5bc a4bd 773e 39bd 9a36 fc3c 8a7a f4bd
000001f0: c593 383e 2881 993c 2451 1a3d 7567 23be
00000200: 67f7 a3bd 111b 083e 88aa 963c e349 75bd
00000210: 861c e0bd f0ca 7dbc 87d0 99bd 1e90 2d3e
00000220: 7c74 c5bd f1f7 20bd 4f4a 993b d987 013e
00000230: 54e7 993d 6ce3 6abd 13e3 043e e2e2 063e
00000240: ad73 f63d 0d05 ac3d 6a55 c3bd 574d 153d
00000250: 26cf 953d 504d 0d3d a0b8 113e b93a 26bd
00000260: 4759 433c 016c a83d 8758 01be fc9c 543d
00000270: 2d97 123e f385 dd3d 323a d5bd 46c0 a9bb
00000280: 6ec1 0d3e e29c 8c3c 36ae 963d 38ab 3a3d
00000290: cdd0 b1bd ed5b 173e 7d47 9f3d 8627 80bd
000002a0: 442f 26be 7972 403e 19cb febd f8e3 a9bd
000002b0: d231 f6bc 04e3 1cbe 0c83 0fbe bc7d c33d
000002c0: 0c2d 29be ba68 143d e2b4 6fbd e3e6 e2bd
000002d0: 20d9 2a3d a95c 973d 77eb c6bd 5bff 123e
000002e0: 49a1 013e 3c57 193e cecf 0fbe 3534 c2bd
000002f0: d1e2 93bd be82 533d 0fe9 273e 1b70 b3bd
00000300: d469 7c3a 738c 3b3e 4877 193e 1d5b dfbd
00000310: c230 a03c 991b 1f3e 902c 003c 072a c23c
00000320: 5910 273e f60b e03d 1666 a53b 3d98 d1bd
00000330: 2c3e 243e ae93 c0bd 3040 df3d 59a2 893d
00000340: bac5 4ebd a9b9 d43c 81d2 7d3c ad6e 54bc
00000350: afb5 f2bc 1d81 7a3d 6ec2 ce3c 27d6 a43c
00000360: ea9b 0abe 613f 2abe 033b 03be 474e b53d
00000370: f6c9 853d 06b6 fb3c e1e5 973d 706c 243d
00000380: 9224 9a3d f25e d43d ded2 393e c606 27be
00000390: 70b4 2b3e 831c 2d3e 8c45 f8bc dacd 553d
000003a0: 8ce4 013e 20ab 183e e78f dbbc 8338 34be
000003b0: d5d2 ca3c 7890 59bd 8c8a 893d dd3f cfbd
000003c0: 5115 05bd eafc f0bd 911d 43be 63fb 4cbd
000003d0: 6e87 39be e77e 1d3e 08f2 3bbe 580e 4cbc
000003e0: ef33 813c 18ec 25bd db8a 67bd 8974 053c
000003f0: 1788 04bd 6746 333d 45b4 613c b516 1bbe
-0.01758511 0.07905613 0.0040223747 0.0278942 -0.18780208 -0.13769808 0.072123684 0.059916314
-0.032886088 0.09631971 0.11823735 -0.16153073 -0.1294422 0.1213515 -0.18116619 0.18133996
-0.10174676 -0.13659382 -0.15284242 0.119237415 0.09342535 0.034877874 -0.096093684 -0.15085709
0.047920186 0.00357903 0.028841019 0.12792458 -0.112580396 -0.04978159 0.11125106 0.0083995145
-0.1639074 -0.15116537 -0.020486973 0.103936926 0.09390463 0.02583471 0.09462823 -0.08174013
0.107936814 -0.16423565 0.011576534 0.041909248 -0.19135724 -0.15816021 -0.18135744 -0.091156274
0.042550206 -0.028487543 0.06258093 0.049353734 0.14630504 -0.05857247 -0.1482469 0.15472637
-0.068884514 -0.044758044 -0.15087736 -0.12663254 -0.14281039 -0.10842915 0.09191683 -0.11633491
-0.019741438 -0.17501158 0.12470459 -0.02361382 0.027870651 0.022435147 0.1657719 0.15666173
-0.08896732 0.15182325 0.11492805 0.040237498 0.185057 -0.17444392 -0.13378552 0.055059418
0.076605916 -0.038671732 0.10564475 -0.021438388 0.0009477012 0.12692244 -0.13804106 0.15302607
0.1739449 0.05649558 -0.14098331 0.16810973 -0.15032242 0.13887052 0.05930215 0.02187735
-0.04473333 -0.14938855 0.17775485 0.077628195 -0.0314066 0.047405455 0.16563326 0.010442151
-0.027727667 0.14686213 -0.11637508 0.17712544 0.10979318 0.018779002 -0.10180386 -0.064168796
-0.07631466 -0.116331436 -0.0512069 -0.122743286 -0.044436753 0.039446745 -0.06741265 -0.034507316
-0.080438055 -0.045225587 0.030787755 -0.11937435 0.1802512 0.018738344 0.037675038 -0.15957434
-0.080061726 0.13291575 0.018391863 -0.059884917 -0.109429404 -0.015490279 -0.075104766 0.16949508
-0.09641358 -0.039298955 0.0046780477 0.12649478 0.075148255 -0.057345793 0.12977247 0.13172486
0.12033782 0.08399401 -0.09537776 0.03645071 0.07314901 0.03449756 0.14230585 -0.040583346
0.011923141 0.08223725 -0.12631427 0.051907524 0.14315481 0.108165644 -0.104114905 -0.0051803915
0.13843319 0.017164651 0.07357447 0.045573443 -0.08682404 0.1478116 0.07777307 -0.062575385
-0.16228968 0.18793668 -0.124410816 -0.08295435 -0.030053053 -0.15320975 -0.14014834 0.09545466
-0.1652109 0.036232688 -0.058522113 -0.110791944 0.041710973 0.073907204 -0.0971288 0.14355223
0.12659182 0.14974684 -0.14044115 -0.09482614 -0.07220996 0.051638357 0.16397499 -0.08761617
0.0009628807 0.18315296 0.14986908 -0.1090605 0.0195545 0.15537871 0.0078231245 0.02370168
0.1631483 0.10939781 0.00504757 -0.10234115 0.16039342 -0.09403168 0.10900915 0.067204185
-0.050481535 0.025967436 0.015492083 -0.01296584 -0.02962765 0.06115829 0.025239196 0.020121647
-0.13536039 -0.1662574 -0.1281548 0.08852821 0.065326616 0.030726444 0.07416893 0.040142477
0.075265065 0.10369672 0.18146846 -0.16311178 0.1676805 0.16905408 -0.0303066 0.05219827
0.1268484 0.14909029 -0.026802016 -0.17599683 0.024758736 -0.05311629 0.06715879 -0.10119603
-0.032491032 -0.117669895 -0.19054247 -0.05004443 -0.18118069 0.1538044 -0.18354046 -0.012454592
0.015771834 -0.04050836 -0.056528907 0.00814546 -0.032356348 0.043768313 0.01377589 -0.15145381

conv1.bias f4 [16]
00000000: d1c7 96bd 9b9a b0bd 8669 d63b 14fc 153e
00000010: f66e 503d 6ee5 a33d 6834 32be 282b 0cbe
00000020: 8b3f 4cbd 5d3a 813d 1068 6c3b 3f9b d33d
00000030: 7653 32be de9f a6bd 9814 143d d394 e8bd
-0.07362331 -0.08623239 0.006543341 0.14646941 0.05088707 0.080027446 -0.17402804 -0.13688338
-0.049865287 0.0630996 0.0036072768 0.10332345 -0.1741465 -0.08135961 0.036152452 -0.11356511

conv2.weight f4 [32, 16, 3, 3]
00000000: 9e89 2e3d 9080 123d da3e 553d 70e3 97bd
00000010: f6bd 9a3c da76 2c3d 74e7 a8bc b4a5 54bc
00000020: 9c42 7fbd ced0 473d 963f 953c c81a 0b3c
00000030: b77c 863d 760f 9abd 260f 85bd cd68 853d
00000040: a49b 9cbd 029e 8fbd 1d3f f7bb 599e dcbc
00000050: 1e0b 123d c8c8 7fbd d920 d13c 0f1a 843d
00000060: 880e 963c 270e 1c3d 74eb 9c3d ec64 5a3d
00000070: eabd 8abd fce9 11bd a60d e93c 4faf 8fbd
00000080: 4336 8dbc c06f 9d3d b17e 9d3d 7372 9dbc
00000090: 78c3 1ebd 3a50 683d 66a8 2bbd 260d 283d
000000a0: 1680 7abd d0a0 bfbc 365d 8abb 8a3f 7ebd
000000b0: 3582 803d 8b60 533b 07d6 3c3d bc86 8d3d
000000c0: 7260 213d 0ba7 223d 602a 6dbd 677c a2bd
000000d0: cc4f 223d f908 27bd 9036 f03b 3213 7bbd
000000e0: e5c9 863d a7fc 95bd 44d7 64bd 5d17 9f3d
000000f0: 4aa9 a0bd b262 5a3d 1e83 9d3d 5e87 52bc
00000100: 6ffb 90bb 30a5 78bd f04c a63d 63a0 edbc
00000110: 9f2e 08bd b97c 613d b209 0f3c e0d3 67bb
00000120: d2e0 083b 6095 59bd ec01 f2bb 67a6 e5bb
00000130: a9fb 093d cffd 3e3d 61c4 703d 1593 6f3d
00000140: 5283 ed3c 6a61 7c3d c062 b43c a634 abbc
00000150: 07dd 10bb d36f 6fbd bc31 a33c ad7d aebc
00000160: 3d09 a33d 89bd 7b3d 90bd a9bb e93a 7e3d
00000170: d536 58bc 6dd9 0e3d 8ec8 99bd f563 00bd
00000180: ea89 4e3d d469 813c 68ff 53bc df86 973d
00000190: 7688 bcbc 352c 973c 6286 6bbd 0dc2 e13c
000001a0: 1269 da3c a289 a83a 9ee5 303d 9b0d 793d
000001b0: 808c cc3c 58fc 5d3c a495 83bd c1ca 983d
000001c0: ecd7 813c 16ba 69bd 18db 4fbd a1eb 953d
000001d0: e57a 813d 1896 963b ba52 a13c 96ec f9bc
000001e0: c779 9abc c050 6d3d f300 603d 3f07 973d
000001f0: 03d4 76bd b43f 2a3d ab2a 34bd b211 22bd
00000200: 9ba8 ad3c 176c 793d 35b1 673d 028f 6d3d
00000210: d69c 4bbd 6a8a 883d 8a14 9a3c 428b a13d
00000220: c208 60bd d3ee f7bc ecbd 71bd 69ea 21bd
00000230: 4fc7 22bd b281 993d 233d 933c 20d9 0b3c
00000240: d435 89bd 62dd cb3c d155 5abd 9e01 93bd
00000250: 48f8 8fbb 88d2 693d c49f 8fbd 34c1 103d
00000260: f472 b23c 76c5 97bd b652 4dbd 402b cb3c
00000270: a096 f9bc aad2 5e3d 3a79 663d 610e 8f3d
00000280: e896 6bbd 0633 6ebd bbd1 163d d863 9bbd
00000290: 9000 e53c 53b3 0ebc d37d 82bd 84ce 9a3d
000002a0: fc9b 81bc 1b80 a2bd 469c 40bd ead4 273d
000002b0: dfbc 323d 762f 9a3d aab3 2bbd 4b51 4fbd
000002c0: 4c87 97bd 65e8 98bd d534 6bbd 2aac 163d
000002d0: 42b4 743d fe88 7f3d d8b8 093d fe73 203d
000002e0: a8c8 c6bc eccc e83c be55 73bd 1978 893d
000002f0: 08cf 023c 3507 a83d a16d 483d 3bb1 953d
00000300: bc95 903d 0a3f bc3c dcfe 26bd 5f7f 9b3d
00000310: 9ed8 adbc 510c 5fbc b046 96bb 1f9c a43c
00000320: 0541 a2bd 3e63 e33c 6b02 9e3d 413f 623d
00000330: c695 963d 2d2b 8a3d 6e8e 7b3d 706f 083c
00000340: 5ae0 e3bc 1573 90bc 3a4d 933d 3f75 813d
00000350: 7c6c 3cbd 80b2 6cbd 8b08 a73d 0c31 5ebc
00000360: 0a63 013d ed1e 97bd 91f8 3f3d 8593 04bc
00000370: f4bb 42bd 4734 243d 0a76 00bc 5f32 fa3c
00000380: 7087 713d 73c7 123b 8803 203d 62df a4bd
00000390: 7a39 32bd 7647 7d3d f7d1 583d 97fa 8cbd
000003a0: 9623 52bd c0a2 aa3c 0dbe 5fbc 4137 6c3d
000003b0: 6e22 ec3c 73f5 1cbd d13b 2c3c 3abf 90bd
000003c0: bae8 68bd 39ce 97bd a83e 9a3d 3902 423c
000003d0: 77fb 7fbd aab5 51bd 0a67 e0bb 1c99 133d
000003e0: 3515 593b 04f2 fa3b 063f d43c 2cfe a9bd
000003f0: 2099 19bd e229 753d b8f1 4cbd 640e c83c
0.04261171 0.035767138 0.052061893 -0.07416427 0.018889409 0.042105533 -0.020618178 -0.01297896
-0.062319383 0.048783116 0.018218797 0.008490272 0.06566756 -0.0752248 -0.0649703 0.0651413
-0.076468736 -0.070125595 -0.0075453655 -0.026930975 0.035655133 -0.06244734 0.025528358 0.06450283
0.018317476 0.038099434 0.076620966 0.053318903 -0.067745045 -0.035623536 0.02844889 -0.07015859
-0.017237788 0.0768733 0.0769018 -0.019219613 -0.038760632 0.056717135 -0.041908644 0.041028164
-0.06115731 -0.023392111 -0.0042225374 -0.062072314 0.06274835 0.003225359 0.04610255 0.06910464
0.039398618 0.039710086 -0.05790174 -0.07933884 0.03962688 -0.04078004 0.007330723 -0.061297603
0.06581477 -0.0732358 -0.055869356 0.07768128 -0.07844789 0.05331678 0.07691024 -0.012849657
-0.0044245045 -0.06070441 0.081201434 -0.029007142 -0.033247586 0.055050585 0.008730339 -0.003537409
0.0020885956 -0.05312097 -0.007385483 -0.007008362 0.033687267 0.04662877 0.05878103 0.058489878
0.028993282 0.06161634 0.022019744 -0.020899128 -0.0022104399 -0.058456253 0.019921176 -0.021300161
0.079607464 0.06146005 -0.0051800683 0.0620679 -0.013196667 0.034875322 -0.07508956 -0.031345326
0.050424494 0.015797533 -0.012939312 0.073987715 -0.023014288 0.018453697 -0.057501204 0.027558351
0.02666143 0.0012858401 0.04318773 0.06080399 0.02496934 0.013548933 -0.06425026 0.07460547
0.01585003 -0.05706223 -0.050746053 0.07320333 0.063222684 0.0045955293 0.019692767 -0.03050832
-0.018856896 0.057938337 0.054688405 0.07374429 -0.060260784 0.04156466 -0.043986004 -0.039567657
0.021198561 0.060894098 0.056565482 0.05799771 -0.049710117 0.066670254 0.018808622 0.078878894
-0.054695852 -0.030265247 -0.059019014 -0.03953019 -0.039740857 0.074954405 0.017973488 0.008535653
-0.0669972 0.024885837 -0.053304497 -0.07178043 -0.004393611 0.057085544 -0.07012895 0.035340503
0.02178333 -0.074107096 -0.050127707 0.024800897 -0.030467331 0.054400124 0.056267954 0.069851644
-0.057516962 -0.05815413 0.03682111 -0.07587403 0.02795437 -0.008709746 -0.06371655 0.07558921
-0.01582145 -0.079345904 -0.047024034 0.040974535 0.043637153 0.07528584 -0.041919388 -0.050614636
-0.07398853 -0.07466201 -0.05742343 0.036785282 0.05974222 0.062386505 0.033623546 0.03917312
-0.024265602 0.028418027 -0.059407942 0.0671236 0.00798393 0.082045 0.048932675 0.07309195
0.070598096 0.022979278 -0.040770397 0.075926535 -0.021221455 -0.013613776 -0.0045860633 0.020093976
-0.07922558 0.027757283 0.07715305 0.055236105 0.07352786 0.067465164 0.06141513 0.00832735
-0.02781694 -0.017633 0.07192464 0.06321191 -0.046001896 -0.05778742 0.08155926 -0.013561498
0.03158859 -0.073789455 0.04686791 -0.008091812 -0.047542527 0.040088918 -0.007840643 0.030541597
0.058967054 0.0022396713 0.039065868 -0.080504194 -0.043511845 0.06183573 0.052934613 -0.06883734
-0.05130347 0.020829558 -0.0136561515 0.05766988 0.028825011 -0.038320016 0.010512308 -0.070677236
-0.05686257 -0.07412381 0.07531482 0.01184135 -0.062495675 -0.05119864 -0.0068482207 0.03603469
0.0033124213 0.007658245 0.025908958 -0.083004326 -0.037499547 0.059854396 -0.05003521 0.024420924

conv2.bias f4 [32]
00000000: 69a7 4e3d ea2f 86bd e691 03bd 2872 a93d
00000010: 24d0 9bbc 85ee 90bc 9a48 603b 84c2 85bd
00000020: 563e 383d 00d6 a43d 8ad6 6ebd 3bdd a73c
00000030: 239e 48bc 41c7 733d ebbf 073d 533f 85bb
00000040: 39f9 22bd dcc3 f63c 5c04 34bd ed5f 433d
00000050: 30e7 8ebd 5fdb 133d 02da afbc b56b a3bc
00000060: 3c1b bbbc 29d6 9cbd 31e6 933d 1029 203d
00000070: 6aab 523d c899 fbbb 4e3a fdbc ad1d 893d
0.050452624 -0.06552108 -0.03212156 0.08273727 -0.019020148 -0.01769186 0.0034222961 -0.065312415
0.044981323 0.0804863 -0.05831007 0.020491233 -0.012244734 0.059516195 0.03314201 -0.0040663867
-0.03978846 0.03012269 -0.04394947 0.047698904 -0.06977689 0.03609788 -0.021466259 -0.01994882
-0.022840135 -0.07658035 0.0722164 0.03910166 0.051433004 -0.0076782443 -0.03091159 0.06695113

fc1.weight f4 [256, 512]
00000000: 623f 82bc 5883 0d3d 9351 97bc 5123 0dbd
00000010: dbbf a73c 02fc e33c 99eb cf3c 3ee9 80bc
00000020: 409e e33c 2333 5f3b c09f 2bbc 7984 92bb
00000030: 1dd1 273d e3a3 2abd 4fc4 063c 143f efbc
00000040: af79 293d dc99 a2bb 8cf3 17bd 90ec 9f3c
00000050: 7db7 bebc d5b4 033d e31b 6ebc de92 073b
00000060: 8e2a 81bc 39c5 eabc 9c75 953c 7b7c 153d
00000070: 9b98 d53a 4144 023c 7fde b0bc b8c0 83bc
00000080: 807e 323c 0cc0 0cbd 968b c9bc 84b9 083d
00000090: 969d 6a3b d1d4 ce3b e6c4 4fbc 3bc6 66bc
000000a0: 690b ae3c e083 163c 59ea 9c38 eed9 24bd
000000b0: aa51 063d 2773 013d 21dd a6bc 7551 32bd
000000c0: 09bf 223b 79b9 11bd d1d6 3abc b732 d1bc
000000d0: 957f b1bc bc33 09bc 89e3 a83c b090 e73b
000000e0: 93c6 0b3d 8f26 753a 6381 ddbc 4906 f53c
000000f0: fc6c ef3b 5a19 c5bc 21aa 1fbd 8bb7 f3bc
00000100: 1f49 373c 8d38 923b 65a9 863c 8202 0dbd
00000110: 4d62 e83c 52ad 70bc 506e 0cbd 13d5 20bd
00000120: 80fe 13bd 2c29 4d3c 14ec c83b 7003 d93c
00000130: 20df 91ba b7ec 6ebc 4526 183d 061e 23bc
00000140: 871c 07bd 5190 f3bc 4880 08bd 3f43 29bd
00000150: 102f 3d3c 01f5 15bd 7f3c 403b 98c9 d2bc
00000160: f605 05bd 6170 f3bc 1287 453c 8835 45bc
00000170: 0f1a 063d 2c5f 42bc 779f fabb afbc d33c
00000180: c8c0 98bb 0cbc 1239 5276 f63c 0a77 cdbc
00000190: b4bc 6f3b c679 11bc 10c9 eebc 596f 343c
000001a0: 5729 2fbc f042 99bb 74ba 213d c373 17bd
000001b0: 4a07 c5bc c36b 0cbd 05c4 b0bb 8451 d738
000001c0: 05b8 2a3c a80e d93b 60e9 c43c 840c 9abc
000001d0: 5104 92bb 6dab 95bb 1e2b 263d 18b3 123d
000001e0: afdb 853c b63e 2ebd ccd3 153d f191 f13c
000001f0: cffd 0b3d d42a c23c 2aa1 8bbc b7c8 5b3b
00000200: 4e55 26bd 88d0 f13b 339a e7bc 2ebf 113d
00000210: e0c8 973b 4a31 6f3c da36 d9bc fa11 5dbc
00000220: a598 c03c 2e67 cf3c 3af8 7d3c 8c7a 0fbd
00000230: f011 213d 7ca8 f5bc 8af2 28bd c6d6 a6ba
00000240: ec99 2dbc 22c4 d7bc 8eb7 97bc 3820 103d
00000250: 876d f43c 3150 a0bc ba8e c2bc 5e18 f63c
00000260: 4749 c83c 0ea6 ee3b 761e 73bc 8d78 be3c
00000270: 5be6 bcbc d12f 593c 746f ee3c 7b0f be3b
00000280: 3c25 31bd ada6 eabc 6105 b0bb 55e9 9cbc
00000290: bd72 d63c 2694 18bd bd11 a93c 7276 0d3d
000002a0: 647b 773a 23fb c7bb 5881 a63b e965 00bd
000002b0: d2e0 32bd 302c 25bd 8e6f 36bc c290 b53b
000002c0: 27be 763a a2a0 903c fcdb 913c 6b62 c53b
000002d0: 4b1e 31bd ac56 23bd 5ce5 cc3b efd7 fc3c
000002e0: 66fe 783c 60a7 83bc de8a 9c3b f852 2a3b
000002f0: 7efd 24bd 0ed6 1bbd 4723 1e3d 7770 55bc
00000300: bd02 f83c def7 753c 4112 b43c 74f8 5abc
00000310: c52a f4bb 2019 14bd ac7f 2c3d b26f e539
00000320: 403d 053d 0362 c5bb 8714 a9bc 185c f23c
00000330: c10a dd3b e587 1d3d b715 e73c a93d 0cbd
00000340: c76e d63c 4334 8b3b 7a6e 03bc eac3 2f3d
00000350: ddbc 2abc a219 b6bc c8ad 023d 6df0 90bc
00000360: c6be 84bc ba55 dcbc 8512 c23c 2ac1 983c
00000370: 471b 9cbc e975 043c 95a1 2fbd ed75 c33c
00000380: 0e41 283c 4e7e d5bc 58e1 333c 7c2f 1fbb
00000390: 4842 b43c 21f7 433c 0866 c83c 6f74 33bd
000003a0: 7a83 11bc 7e78 29bc cc59 a4ba 0424 f13c
000003b0: 74b9 21bb 3a51 a0bc 39a4 bfba 49a4 b9bb
000003c0: 8bcd c2bc e362 01bd 2d26 a93c ed61 923c
000003d0: 1355 1ebc 038d c63c c778 8e3c dd84 8dbc
000003e0: c62e e23c d7a6 c9bb 8275 243d 0c9d b03c
000003f0: 4e28 34bd b0ee 05bd 9d2f e73c 9ac3 31bd
-0.015899364 0.034549087 -0.018471515 -0.03445751 0.020477226 0.027830128 0.025380896 -0.015736219
0.02778542 0.003405758 -0.010475099 -0.0044713584 0.04097091 -0.0416602 0.008225515 -0.029204883
0.041375812 -0.004962189 -0.0370975 0.019521981 -0.023280853 0.032154877 -0.014533016 0.0020686905
-0.015767362 -0.028658496 0.018244557 0.036495667 0.001629609 0.007950843 -0.02159047 -0.016083106
0.010894418 -0.034362838 -0.024602693 0.033380046 0.0035799495 0.006311991 -0.012681222 -0.014085348
0.021245675 0.009186715 7.48231e-05 -0.040246896 0.032792725 0.03160396 -0.020369114 -0.043534715
0.0024833104 -0.03557727 -0.011403755 -0.025536878 -0.021667281 -0.008374151 0.02061631 0.0070668086
0.034124922 0.0009351754 -0.027039235 0.029910224 0.007306693 -0.02405994 -0.038980607 -0.029750606
0.011186867 0.004462308 0.016438195 -0.03442622 0.028367186 -0.01468976 -0.03428489 -0.039265703
-0.036131382 0.012522023 0.0061316583 0.026490897 -0.0011129119 -0.014582804 0.03714587 -0.009955889
-0.03298619 -0.029731901 -0.033325464 -0.041323896 0.011546865 -0.036610607 0.0029332933 -0.025730893
-0.032476388 -0.029716672 0.012056129 -0.012036689 0.032739695 -0.011863511 -0.007648404 0.025846807
-0.004661653 0.00013993698 0.030085716 -0.025081176 0.0036580982 -0.008879131 -0.029148608 0.0110128755
-0.0106910085 -0.004677169 0.039484456 -0.036975633 -0.024051327 -0.034282457 -0.005394461 0.000102671824
0.01041985 0.0066240616 0.024037063 -0.018804796 -0.004456081 -0.0045675547 0.040568464 0.03581533
0.016340105 -0.042540275 0.03657894 0.029488536 0.034177598 0.023702063 -0.017044622 0.0033536383
-0.040608697 0.007379595 -0.02827177 0.035582714 0.0046321005 0.014599154 -0.026515413 -0.0134930555
0.023510287 0.025317755 0.015501076 -0.03502898 0.039323747 -0.029987566 -0.04124693 -0.0012728802
-0.01059578 -0.02633864 -0.018520143 0.035186976 0.029837383 -0.019569488 -0.023749698 0.030040916
0.024449004 0.007282979 -0.014838805 0.023250842 -0.02305906 0.013256029 0.02910588 0.0058001853
-0.0432484 -0.02864393 -0.005371735 -0.01915423 0.026177758 -0.03725066 0.020638341 0.034536786
0.0009440689 -0.006102936 0.005081337 -0.03134719 -0.043671437 -0.040325344 -0.011134995 0.005540938
0.000941249 0.01765472 0.017805092 0.006023695 -0.04324178 -0.03987758 0.0062529277 0.030864684
0.015197372 -0.016071022 0.0047772964 0.0025989395 -0.04028081 -0.038045935 0.03860786 -0.013027302
0.030274743 0.015012709 0.02198136 -0.0133649 -0.0074513876 -0.036156774 0.042113945 0.00043761503
0.032529116 -0.006023647 -0.020639671 0.02958493 0.0067456667 0.038459677 0.028208597 -0.03423849
0.02617587 0.0042481734 -0.008021945 0.042911448 -0.010421005 -0.02222902 0.031904012 -0.017692769
-0.01620425 -0.026896346 0.023690471 0.018646795 -0.019055976 0.008084753 -0.042878706 0.023859942
0.0102694165 -0.026061203 0.010979019 -0.0024289778 0.022004262 0.011960776 0.024462715 -0.04381221
-0.008881444 -0.010343669 -0.0012538969 0.029436119 -0.002467719 -0.019569982 -0.0014621086 -0.0056653363
-0.023779651 -0.031588446 0.020648086 0.01786896 -0.009663838 0.024237162 0.017391576 -0.017275268
0.027610194 -0.006153922 0.040151127 0.02155926 -0.04398375 -0.032698333 0.028220946 -0.04339943

fc1.bias f4 [256]
00000000: 79d1 a7bc 3b23 d3bc 84bb 15bc a5ec 02bd
00000010: 949f d2bc 656e 2ebd 1f2d 45bb 1d0e fa3c
00000020: 0729 0ebc 77f0 5abc 75d3 f73a 2225 123d
00000030: 5ff6 2b3d 69a0 b3ba 76d7 f03c 3b4e 7cbc
00000040: 9373 33bd eb5d 0fbd 33e5 76bc e92b 21bd
00000050: 7c2d ef3c e807 a0bb 2a2c 0b3d 8635 413c
00000060: 1b5c 753c 13f6 b23c adbc d3bc 781b fcbc
00000070: a104 993b ad47 a1bc 7347 fdbc cb4f ad3b
00000080: cbee 543b 0e23 193d 674c a23c 15d0 8ab9
00000090: 8049 153d f70d 28bd 8b80 b9ba aa65 fa3c
000000a0: 189a 1a3d 0144 20bd 79fb 333d 65aa 27bd
000000b0: 4ada f13c b1db e4bc 7d2d 96bc 07e0 01bd
000000c0: 05a6 c1bc 0a8e 8ebc a07b 763c 00b9 533c
000000d0: 9e13 083d 3cb8 f73b 9da1 7bbc 1eab 893c
000000e0: ac1a 853c b808 ec3b 8aa5 043d 31ed e33c
000000f0: 54fa 3d3d 8aa3 da3c dfaa 2c3d ce8a cdbc
00000100: 90b5 70bb c6ae 8fbb 73de 31bd 1d6c 083d
00000110: 9054 9b3c 020e ae3c a3ea a7bc 2104 153c
00000120: 4043 51bc 1350 8ebc c9f5 93bc 22f2 23bd
00000130: a605 123d 2d0a b8bc 839f 22bd 31c0 c33c
00000140: 7363 0fbb 1247 e53c bbd1 6f3c fa89 323d
00000150: 360c e5bb 7ed7 083c f74c 1a3d 9742 b43c
00000160: a695 bebc 6c6d bbbc 255d a53b b6b0 9abc
00000170: 7235 a83b ee04 523c afd2 cb3a ca87 fdbc
00000180: 361e 8f3c 9e46 dd3c 7a93 803c 6a0a 7b3c
00000190: 0154 76bc 0713 79bc 0d72 24bc e339 0fbd
000001a0: dde9 353d 8e68 b83c d5e6 85bc bbcd 083d
000001b0: 6511 2cbd 0136 313d f282 6c3c 5745 353d
000001c0: 4daf 4f3c 138d c3bc 6d3d 51bc 5022 bcbc
000001d0: d8d2 f5bc a605 053d d309 0ebd 2dcb 0bbd
000001e0: f72a 113d 894c 0dbc d078 18bd 3dbf 2dbd
000001f0: 78c7 383c c2bd e33b 2549 ad3c 239b 94bc
00000200: 967f e83c 8310 03bd 2abc dc3c 930d 0ebd
00000210: 748d f43c 48a6 f2bc 6715 34bd 5216 05bd
00000220: a96e b8bc 4599 d13c cf97 1dbd ed38 953b
00000230: 5e58 ce3c 9c01 a1bb 7d45 18bc 5ce8 e7bc
00000240: 9b65 ed3b b96c 26bd c45c 04bd 10a1 e63c
00000250: 61af 79bc a546 aabc 63e5 913a fc3e 2f3d
00000260: e122 b63c cb6f 9cbc 859e 373b efbd 66bc
00000270: a3a4 47bc 6099 82bc bb67 d6bc 9bea af3c
00000280: dadf 033d 9076 4bbc 442b 5bbc 3c41 0dbd
00000290: e977 db3c 372f bc3c da09 eabc d07a 263b
000002a0: fb9f f7bb a949 a2bb 463b aa3c 2eb3 31bd
000002b0: bb96 263d 8f25 a8bb 36e9 06bd 9be3 20bc
000002c0: 8938 073c 7a3a 25bc 1547 21bd 0cc4 9a3b
000002d0: 3dc9 a1bc fdf2 fc3c a637 9f3c e634 1c3d
000002e0: 0397 dabc bc70 db3c de70 0f3d 5ad7 3dbc
000002f0: 30af b5bc 8552 b83c 4628 30bd ac6c e2bc
00000300: 607c 683c 8034 0a3d cc8a 4e3c ae71 283d
00000310: cf75 073d 466d f93c cd9b dd3c 5525 1bbd
00000320: 1bf9 cf3c f768 2d3d 6a49 4ebc 3eb6 17bd
00000330: 828a 6abc 2fd8 12bd 13a9 bcbb d364 0f3d
00000340: a1a2 fb3c 2eb5 e73c 3cd7 a53b d2e2 6ebc
00000350: bb6e 0c3c 7e44 1abd 6c6d 22bd c7af 48bc
00000360: d8cb 34bd b6e0 21bd fc33 e9bc 908f e0bc
00000370: 78d9 18ba 63f5 93bb c4ea 193d a08a b4bc
00000380: afe4 a2bb 1bf4 093d e389 003d 94be e03c
00000390: ab6b 33bd 937b 01bd 0a0d 063c 3c03 933b
000003a0: 3dc4 0fbd 5796 64bc b1cf 78ba ceeb 61bc
000003b0: 3933 38bc 1b37 babc 9ec5 04bd 955a 123d
000003c0: 05a7 c6bc de24 b93c 26e7 0d3c 241e 1f3d
000003d0: af8f 04bd 1f09 c8bc db03 c4bc ff1c d73c
000003e0: 0d75 00bc 1717 123c 93e2 a03c cf84 4e3c
000003f0: 9cdb 1dbc a0f1 be3c 12c9 03bd d754 91bc
-0.020485627 -0.025773635 -0.0091389455 -0.031963963 -0.025710858 -0.04258575 -0.0030086709 0.030524308
-0.008676774 -0.013362995 0.0018907624 0.035679944 0.041983005 -0.0013704422 0.029399615 -0.015399511
-0.043811392 -0.035001677 -0.015069294 -0.039348517 0.029196493 -0.004883755 0.033977665 0.011792546
0.014975573 0.021845853 -0.025846804 -0.030774817 0.0046697413 -0.019687498 -0.030917859 0.005289053
0.0032490965 0.037386946 0.019811822 -0.00026476444 0.03644705 -0.041028943 -0.0014152689 0.030566055
0.03774461 -0.039127354 0.043940995 -0.040933985 0.029523034 -0.027936788 -0.018332237 -0.03170779
-0.023638735 -0.017401714 0.015044123 0.012922525 0.033221833 0.0075598042 -0.015358356 0.016805228
0.01624807 0.007203188 0.032384433 0.027823063 0.04638131 0.02668931 0.042155143 -0.025090601
-0.0036729313 -0.0043848483 -0.043425035 0.03330623 0.018961221 0.021246914 -0.020497626 0.009095223
-0.012772381 -0.017372167 -0.018061535 -0.040025838 0.035649918 -0.02246579 -0.039702903 0.023895355
-0.0021879345 0.02798799 0.014637406 0.043588616 -0.006989981 0.008352159 0.037671056 0.022004409
-0.023264717 -0.022879325 0.005046504 -0.01888309 0.0051333243 0.012818558 0.001555046 -0.030948538
0.01747046 0.027011212 0.015695322 0.015322307 -0.0150346765 -0.01520229 -0.010036957 -0.034967314
0.044412483 0.022510793 -0.01634542 0.033399325 -0.042008776 0.043264393 0.014435517 0.04425558
0.012676072 -0.02387098 -0.012770993 -0.02296558 -0.030007765 0.03247609 -0.034677338 -0.03412931
0.035441365 -0.008624204 -0.03722459 -0.042418707 0.011278026 0.006950111 0.021153042 -0.018140381
0.02838115 -0.03199817 0.026945192 -0.034680914 0.029852606 -0.029620305 -0.043965723 -0.03249199
-0.022513704 0.02558578 -0.038474854 0.004553905 0.025188621 -0.004913522 -0.009293911 -0.02830904
0.0072447783 -0.04063103 -0.03231503 0.028152972 -0.0152395675 -0.020785639 0.0011130985 0.042784676
0.022233428 -0.019096276 0.002801807 -0.01408337 -0.012185249 -0.015942276 -0.02617251 0.021474173
0.032195903 -0.012418404 -0.013377015 -0.03448604 0.026790576 0.022971733 -0.02856915 0.0025402792
-0.007556913 -0.0049526286 0.020780217 -0.04338377 0.04067109 -0.0051314305 -0.03293725 -0.00981989
0.008253225 -0.010084743 -0.03937443 0.0047230776 -0.019749278 0.030877585 0.019435715 0.038136385
-0.026683336 0.026787154 0.035019748 -0.011586988 -0.022178262 0.022500286 -0.043007158 -0.02763971
0.01418981 0.033741474 0.012606334 0.04112404 0.033071335 0.030447613 0.02705183 -0.0378774
0.025387337 0.04233643 -0.012590745 -0.037039034 -0.014315249 -0.0358507 -0.00575746 0.035008263
0.030717196 0.028284635 0.0050610583 -0.014580445 0.008571322 -0.037662975 -0.039655134 -0.01224894
-0.044139713 -0.03952094 -0.02846717 -0.027412206 -0.0005830745 -0.0045153364 0.037577406 -0.022038758
-0.004971109 0.033680063 0.0313815 0.027434625 -0.043803852 -0.03161199 0.00818182 0.0044864696
-0.035099257 -0.013951859 -0.00094913976 -0.01378913 -0.011242681 -0.022731354 -0.032415025 0.035730917
-0.024249563 0.022600587 0.008661067 0.038847104 -0.03236359 -0.024418412 -0.02392762 0.026258944
-0.007840407 0.008916638 0.019639289 0.012604906 -0.0096348785 0.023308575 -0.032174177 -0.01774065

fc2.weight f4 [1, 256]
00000000: 2817 d4bb 9630 25bd 74d5 193d ca31 a33b
00000010: ed23 3e3b 871f cbbb b4d5 79bd 247e 953c
00000020: ba52 43bd 4275 53bc 147c adbc 86c2 023d
00000030: 27e5 1b3d c1e4 1e3d bb82 ddbc fa8e 91bc
00000040: b156 8bbb b738 3cbd 471d 7d3d 11fa 10bd
00000050: 9526 a9bc 857e 763d 7840 cf3c 1f40 6a3d
00000060: 13f8 e83b d898 adbc 9403 5abc 973c 443d
00000070: c86e 1cbd af69 c9bc ab49 d03c 4055 d6bc
00000080: 08ff 5ebd 9f07 2cbc a59c 57bd 3039 613d
00000090: ad51 0c3d 1143 bb3c 0545 5dbd 332b 33bc
000000a0: 9eeb d63c 7018 92bc a7e8 633d 1ae6 0dbd
000000b0: dd90 833b becf 603d e7cb c43c c5ac 143c
000000c0: d78c e33c 5fac ec3c d086 093d f836 663d
000000d0: 03e5 4ebd 68fc 353d 78d8 193d 0cf2 8dbc
000000e0: 00a2 343c 1035 4cba f823 0c3b 041d afbc
000000f0: 4053 1f3d 04f2 b2bc 8739 0b3c 7dc5 59bd
00000100: 49df bf3b 673e 163c 6674 21bb e5ac e0bc
00000110: fb24 11bb 0ed2 ef3b 6eea 17bc f2d9 0cbd
00000120: 27e2 39bd 224d cfbc aac5 533d d1f2 353d
00000130: 6153 56bd 02a7 23bd 60ae 3cbd 88c7 403c
00000140: dd60 0fbd de2b e23b 4183 29bc b861 bf3b
00000150: f03a 993b 81c5 c63c d677 03bd b93e 773d
00000160: 2d46 7dbc 40cb 97bc 2d74 913c d60e 8abc
00000170: 41da 4c3b 79bc e53c d1b6 65bd 9934 e33c
00000180: d0fc 49bc 6366 b53b 9e3f 7f3d 1469 f23c
00000190: d995 1abd a221 003c f9fa 37bd e781 eb3c
000001a0: 64a7 bc3c ba4c c0bc d19f f9bc e1a8 253b
000001b0: ce3b 123d 40f8 383d 19dc 7ebc 2bf5 c93c
000001c0: 5f6c 38bc 319d 29bc cc7b fc3c f544 9cbb
000001d0: 4633 383c c20b e13c 0a48 403d 3357 e1bc
000001e0: e9da 2fbc 2b43 b7bc 7645 233d e5be 0fbd
000001f0: 74a7 6e3d 72d7 16bd 0f42 82bc 181e 2a3d
00000200: 72ee 513c ea55 1c3d b1b5 b23c b28a b8bc
00000210: b46d 583d d7ca 96bc 91ef 383d e144 15bd
00000220: 8e10 243d f7bb cc3c e935 e1bc 0093 eb3b
00000230: 3702 5c3d 8040 61bd 2515 1cbd ee32 183a
00000240: 43b9 31bd 8d48 3dbd 6e7f 693b 715f 3fbd
00000250: 502a 393d 230d 333c 1f86 ff3b a2a6 9dbc
00000260: 43c3 243d ba24 e7bc 48d9 f63c b0b6 96bc
00000270: 29ae 53ba 5076 26bd 58ad 22bd a2a2 cf3b
00000280: 26c6 c7bc 14ca bcbc d733 e6bc 0356 e73b
00000290: b9ea 333d ab67 a03b 6471 3dbd 6ca8 30bd
000002a0: 326e 393d f446 4cbb 7be0 913c 7f4c 723d
000002b0: 9797 f3bb 32e8 4fbc 99b7 a43c 15a9 853c
000002c0: 9411 ce3c 7dc0 34bd 1011 00bd b426 69bc
000002d0: 1f11 a8ba 52b4 4bbd 21e8 e63c 9bff 07bc
000002e0: 5e6e 43bc 0031 03bc 9278 353b d564 b6bc
000002f0: 5aad c7bc b3c3 613d a55f 6c3b 70ad e8bb
00000300: 3358 07bd 3037 663d efb9 1c3d 2ef1 d93c
00000310: 20a6 4dbd 5669 fcbc dabb 183c c47a 5c3d
00000320: c48d 18bd ccac 093c d959 643d 4569 e5bc
00000330: c839 613d e60a ce3c fe05 8d3c 0caa 5ebc
00000340: eff5 093d 0226 4bbc 99f6 60bd d198 78bd
00000350: cc28 c8bc 72d2 9c3c 1a1f 483d cc4a 963c
00000360: 608f 1c3d fcd3 0b3d c47c 1d3d 7072 62bd
00000370: 6dd3 f63c f7ef 7f3d ce49 83bc 758c 67bc
00000380: 7ab2 00bd 2729 6cbb bb6e 8dbb b6a9 253d
00000390: 456b cbbc 5b4c 73bd f184 e9bc 43f7 38bc
000003a0: 5e9c 0c3c 22b8 28bd 3b1a 72bd 9f1e 5ebc
000003b0: b15e 00bd 622e 353d 7c58 03bb 7f9f e6bc
000003c0: 5196 583c d4be c13c 5236 66bd 9b08 eabc
000003d0: f1e6 88bc 52bc 8c3b 1261 1dbd bccb b1bc
000003e0: e5e7 713b c067 a93b ae45 b23c 3202 c1bc
000003f0: 67f8 17bc cece 3bbd fd96 f0bc 3635 39bd
-0.006472487 -0.04032954 0.03755708 0.0049803006 0.0029013113 -0.0061988267 -0.06099482 0.018248625
-0.047686316 -0.012906374 -0.02117733 0.031923793 0.038060334 0.038792375 -0.027039876 -0.017768372
-0.004252278 -0.045952525 0.0617955 -0.035394732 -0.02064828 0.060179252 0.025299296 0.057190057
0.007109651 -0.021191046 -0.013306517 0.047909345 -0.038191587 -0.024586527 0.025425753 -0.026163697
-0.054442436 -0.010499864 -0.052639622 0.05498618 0.03425758 0.022859128 -0.0540209 -0.010935592
0.026235398 -0.017833918 0.055641796 -0.03464327 0.004015072 0.05488562 0.02402301 0.009074395
0.027777119 0.028890787 0.033575833 0.056204766 -0.05051137 0.044430166 0.037559956 -0.017327331
0.011024952 -0.00077898894 0.0021383744 -0.02137614 0.038897753 -0.021843918 0.008497602 -0.053166855
0.005855475 0.009170151 -0.002463603 -0.027426193 -0.0022147286 0.0073187416 -0.009272201 -0.034387536
-0.04538169 -0.025305334 0.05170218 0.04442102 -0.05232561 -0.039954193 -0.046064734 0.011766322
-0.035004485 0.006902202 -0.010346235 0.0058405064 0.0046762154 0.0242641 -0.032096706 0.06036255
-0.015458626 -0.018529534 0.017755592 -0.016852777 0.003125802 0.028043972 -0.05608255 0.027735041
-0.012328342 0.005535887 0.06231653 0.02959112 -0.037740562 0.007820519 -0.04491708 0.028748466
0.023029037 -0.023474086 -0.030471714 0.0025277662 0.035701565 0.045158625 -0.015555405 0.024653038
-0.011256306 -0.010352419 0.03082075 -0.0047689625 0.011242693 0.027471427 0.0469437 -0.0275074
-0.010733345 -0.022370895 0.039861165 -0.03509416 0.058265164 -0.03682656 -0.01590064 0.041532606
0.012813197 0.03816787 0.021815153 -0.022527073 0.052838996 -0.018407268 0.045150343 -0.03644264
0.04005485 0.024991972 -0.027491527 0.0071891546 0.05371305 -0.054993153 -0.038106102 0.0005805929
-0.04338957 -0.046211768 0.0035628933 -0.04672188 0.045206368 0.010928425 0.007797971 -0.019244496
0.04022528 -0.028215755 0.030132905 -0.018397659 -0.0008074963 -0.040640175 -0.039716095 0.006336526
-0.024386477 -0.023045577 -0.028100891 0.007059814 0.04392502 0.0048951707 -0.046250716 -0.04312937
0.045271106 -0.003117022 0.017807236 0.059154984 -0.0074338424 -0.012689637 0.020107077 0.016315976
0.025154866 -0.044128884 -0.031266272 -0.014230419 -0.0012822485 -0.049732514 0.02818686 -0.008300687
-0.011928169 -0.008007288 0.0027690274 -0.022264877 -0.024374653 0.055118274 0.003606775 -0.0071007535
-0.033043098 0.056204975 0.038263258 0.026604261 -0.050207257 -0.030811947 0.009322131 0.053828016
-0.037244573 0.008403014 0.055749748 -0.028004298 0.054986745 0.025151681 0.017214771 -0.013590347
0.033681806 -0.0123991985 -0.054922674 -0.060692612 -0.024433516 0.019143317 0.048857786 0.018346213
0.03822267 0.03413771 0.038449064 -0.055284917 0.030130113 0.062484708 -0.016026404 -0.014132609
-0.03142021 -0.003603527 -0.0043161786 0.040445052 -0.024831424 -0.05939899 -0.028505774 -0.011289421
0.008582203 -0.041191228 -0.059107047 -0.013557105 -0.031340305 0.044233687 -0.0020041754 -0.028152226
0.013219432 0.023650564 -0.056204148 -0.028568557 -0.016711684 0.0042949105 -0.03842265 -0.021703593
0.0036911902 0.0051698387 0.021761741 -0.023560617 -0.009275532 -0.04585152 -0.029368872 -0.04521676
