train/autopilot.pt (torch_old, 600155 bytes, 13 tensors)

conv1.weight f4 [24, 3, 5, 5]
00000000: 5462 07bd 3983 e7bd 0a52 713d 0780 adbb
00000010: 4306 ccbd 8538 adbd 4f28 313d 3e63 803d
00000020: 9d8f 0d3d d7f5 9c3c 8f69 0fbe 1585 8f3c
00000030: 1747 1cbd cfd4 a1bd 3d55 c2bd 91be 243d
00000040: c861 0ebd 79dc ea3a d3e2 f7bc 2288 33bc
00000050: 2dff e8bd 480a fcbd ea31 23bd 016c 2abe
00000060: 123b 18be 5750 83bd fd00 5f3c 4a05 f2bb
00000070: 5fbe 8a3d 18c9 0dbe d9ea 15be c6a0 e5bd
00000080: 6609 d9bd 47a0 1a3d a1f5 8abd 2616 eebc
00000090: fec5 413d 2508 873d 963b 2a3d c754 8a3c
000000a0: 5250 e8bd 2d5f 08bd 2f5f 0fbe a9cb 10be
000000b0: c341 89ba 315e bebd 9d82 2d3d 770e f1bd
000000c0: a832 1abe 0341 a8bd 5e36 30bc 4435 1ebe
000000d0: 86f0 7a3d 62fa f53a dda7 033d 218e 7c3d
000000e0: 0023 6d3d dcd1 74bd 4f2c 9abb 314f 0abb
000000f0: e12d a9bd 4075 0dbe 9a2c cfbd a638 a0bc
00000100: 88b7 503d aee3 88bd 6ac9 ce3a 764f 433d
00000110: 556e 2b3d 73b0 463c c697 cb3a de9a 2abd
00000120: c77b 8a3c 1e19 0ebe 4022 b1bb a163 553d
00000130: 3e9e b0bd 2449 ddbc 09ef 38bd de7a c53c
00000140: 1f8c 55bd 53dd 613d b817 90bd c95f bbbd
00000150: 3b07 47bd c77a 0d3d a580 a1bd 2c9e 00bd
00000160: dcfb a5bc 6c65 953d 3d9f a6bd 28c0 5dbd
00000170: f17f a6bd 3619 a6bd 729f 8d3c 1935 b93d
00000180: 7e96 6d3d 4ac4 c1bd e63b 95bc 6b64 a13d
00000190: f2a3 2b3d c6b5 7eba b4e4 60bd bc95 ab3c
000001a0: 31c1 063d 2872 7a3d 2653 ed3c a79d 923d
000001b0: 08ff 873c a81f 6b3d 90c8 a33d ade7 73bd
000001c0: 6c87 c53d b844 4fbd c139 aebc f330 75bd
000001d0: 477e 84bd e866 d6bd 66a4 cbbd 6b84 f8bd
000001e0: 434c e4bd 1b30 123c c7b2 5f3d 7b68 753d
000001f0: 55b4 593d aa3a e7bd 664b 34bc ecd3 e0bd
00000200: d638 2bbd 667c c5bc 778d 8dbc 399b e9bd
00000210: c3dc 973c 4545 403b bf9f 38bd 4d0c 003d
00000220: f21f 8bbd 0ac0 5b3d 3357 c5bc 814c 283d
00000230: b5e6 e3bd b436 5e3c 648b 753b 8486 12bd
00000240: 98e1 89bc f5db 263d 8fd6 8f3d 3ae3 e4bd
00000250: 9166 66bd 8dfe 2bbd ef5c aa3c d2ee 8c3d
00000260: 7a8b f03c 01a0 21bd ff89 b03a fcdd 1e3d
00000270: 9686 763d a908 b6bd f891 083c 0548 67bd
00000280: 33e0 a73d b70b 783d 2346 64bc fe9a debc
00000290: ecfc 953c 3101 f6bc c645 a8bd fdb0 a2bd
000002a0: fbc9 823d f21b 06bc 1870 46bc 2e67 c73d
000002b0: 6bcd e03c 0463 a4bd bbab 9dbd d1a7 87bd
000002c0: 63ff 12bd 8c61 c63d 6153 a83d 1f13 a9bd
000002d0: a769 f03c 4195 a3bd 0926 d13d 7861 a43c
000002e0: a319 df3d 403a 663d 49e1 1c3d 241d 5bbd
000002f0: e731 d43d 6827 473d c7c1 53bd 61dc 003e
00000300: 65f6 ea3c 61ce 24ba 97be 89bd 4165 8cbd
00000310: ced0 1d3d 6344 e53d 0937 acbd a0bf 91bd
00000320: 788a d63d 5ae3 bb3a 8f15 f53d 29e1 1fbc
00000330: c7a9 d73d b323 623d 5201 adbd a7d3 8cbd
00000340: 4bd0 4c3d f33f 2fbd d3e3 aa3d 1400 573d
00000350: c681 a1bd 8a22 043d b096 dd3d 43e6 4bbd
00000360: bb86 60bd 96bc 95bd 301d 0c3d 8152 293d
00000370: 64c9 003e a93e eeb9 d776 b0bd 2b1a 1f3b
00000380: cc5b c5bd 7082 1bbc e83e 0a3b 25b1 95bd
00000390: 5fa2 78bd f794 b93c f456 113d fc33 1cbd
000003a0: a609 86bd 10d3 aebd 9a40 9fbd f9cd 13be
000003b0: 37b6 463d 68ec 563c bb1f bfbd 9818 7cbd
000003c0: dfbf 81bd 12b3 473c ffd5 b1ba 2c3b 933d
000003d0: 9e44 9abd d0af 6cbd bbf1 d2bc 14c4 8c3d
000003e0: 9513 3dbc 9546 05be ed55 853d 8760 d8bd
000003f0: 5408 91bd 2910 83bc e133 9cbd cd8a 14bc
-0.033052757 -0.113043256 0.05891613 -0.005294803 -0.09962132 -0.08458046 0.043251332 0.06268929
0.03456079 0.019160194 -0.14005111 0.017519513 -0.038153734 -0.07901918 -0.09488914 0.0402208
-0.03476122 0.0017918489 -0.030259525 -0.01095775 -0.11376796 -0.123066485 -0.039842524 -0.16642763
-0.14866284 -0.06411808 0.0136110755 -0.0073858844 0.06774592 -0.13846242 -0.14640369 -0.11212306
-0.10597496 0.03775051 -0.06785131 -0.029063296 0.04730796 0.0659335 0.04156073 0.016886128
-0.11343445 -0.03329389 -0.14001153 -0.1414019 -0.0010471869 -0.09295309 0.04236089 -0.11770337
-0.15058386 -0.08215525 -0.01075515 -0.15450007 0.061264537 0.0018766636 0.03214251 0.061658982
0.057894707 -0.05977045 -0.004704989 -0.002110433 -0.08260704 -0.13814259 -0.10115929 -0.019558262
0.05095628 -0.066840515 0.0015776579 0.0476832 0.041853268 0.01212703 0.0015532903 -0.0416516
0.016904725 -0.13876769 -0.0054056942 0.052096967 -0.08623932 -0.027012415 -0.045149837 0.02410644
-0.052135583 0.05514271 -0.07035774 -0.09149129 -0.04859088 0.034540918 -0.07885865 -0.031400844
-0.020261697 0.07294735 -0.08135841 -0.054138333 -0.08129872 -0.08110277 0.017287944 0.09043331
0.05800485 -0.09461267 -0.018217038 0.07880481 0.041904397 -0.00097164174 -0.05490561 0.020945422
0.032899085 0.061144024 0.028970312 0.07158976 0.0166011 0.057403237 0.07997239 -0.059547115
0.0964497 -0.050602645 -0.021267774 -0.059861135 -0.06469398 -0.104688466 -0.09943466 -0.12134632
-0.11147358 0.008922602 0.054613855 0.059914093 0.053150494 -0.11290486 -0.0110043045 -0.10977921
-0.04180225 -0.02410717 -0.01727937 -0.114065595 0.018537885 0.0029338163 -0.04507422 0.03126173
-0.067932025 0.05364994 -0.024089431 0.041088585 -0.11127988 0.013562847 0.0037467116 -0.035772815
-0.016831204 0.04073711 0.07023346 -0.111761525 -0.05625016 -0.041990805 0.020796267 0.06881489
0.029363383 -0.039459232 0.001346886 0.03878592 0.060186945 -0.088883705 0.008335583 -0.056465168
0.081970595 0.060558047 -0.0139327375 -0.027173515 0.01830908 -0.030029865 -0.08216433 -0.07943914
0.06386181 -0.008185374 -0.012111686 0.09736477 0.0274417 -0.08026698 -0.076987706 -0.06623805
-0.035888087 0.09686574 0.08219028 -0.082556 0.029347254 -0.07987452 0.10212333 0.020066008
0.10893562 0.056207895 0.038300786 -0.053494588 0.103610806 0.048621565 -0.051698472 0.12584068
0.028681943 -0.00062868564 -0.06725805 -0.0685525 0.03852921 0.11194684 -0.084089346 -0.07116628
0.104756296 0.0014334724 0.119670026 -0.009758272 0.10530429 0.055209827 -0.084475175 -0.06876307
0.05000333 -0.042785596 0.08344235 0.05249031 -0.078860804 0.0322595 0.10819757 -0.04978014
-0.05481599 -0.073113605 0.034207523 0.041338447 0.12576824 -0.00045441583 -0.08616417 0.0024277072
-0.096366495 -0.009491548 0.0021094624 -0.07309178 -0.060701724 0.02265404 0.035483316 -0.038135514
-0.06544809 -0.08536351 -0.07775994 -0.14434041 0.048513617 0.013117887 -0.09332224 -0.061546892
-0.06335425 0.01218869 -0.0013567804 0.071890205 -0.07532619 -0.057784855 -0.025750032 0.068733364
-0.011540313 -0.13015206 0.0651053 -0.10565286 -0.070816666 -0.015998917 -0.076270826 -0.009066296

conv1.bias f4 [24]
00000000: 2b96 503d 25f6 c7bd 8072 87bd 710c 18be
00000010: 941b b1bd 1232 a5bc f015 733d 1050 d5bd
00000020: f1e9 81bd 977e aebd a5f6 e2bd b334 f13d
00000030: 2953 0c3c 599a a53c 6fc1 17be f674 10be
00000040: f15f 1bbd f631 993d 2c8c 65bd 3e16 90bc
00000050: 2cad 003c 64d5 80bd 8c20 783d 29a0 3fbd
0.05092446 -0.09763745 -0.06613636 -0.14848496 -0.08647838 -0.020165477 0.059347093 -0.10415661
-0.06343449 -0.08520239 -0.110822 0.1177763 0.008564749 0.0202152 -0.14819883 -0.14107117
-0.037933294 0.074802324 -0.05604188 -0.01758873 0.007853787 -0.06290701 0.060577914 -0.0467836

conv2.weight f4 [32, 24, 5, 5]
00000000: cde3 99bc 1f83 94bd e2f2 6fbd 1fb4 2abc
00000010: c4ba 943a a12c cdbc 9370 10bd 4362 9cbd
00000020: c7f7 b7bc c933 88bd 943b 5bbc 32db 90bd
00000030: 0169 18bd 61c2 15bd 3b25 9abd ac20 a539
00000040: 32c3 a4bc 6fb7 e9bb eb2b 113b 8a15 84bc
00000050: 1f1e 65bd f826 40bd a463 12bd 8b97 0c3b
00000060: a074 afbb 0087 cb3c 47b8 1abd e46d b33c
00000070: 0add 193d d011 073c 969c b2bc a43a 133d
00000080: 9ccb 163c aa44 02bd 6cb4 0f3c f872 f43b
00000090: 73e6 08bd 245d c3bc 4634 a63c 0c8d 283c
000000a0: b4a4 dd3c fa53 0b3d b47d b83c c068 30bb
000000b0: ec8e 57bc f8f4 733c 8604 a03c 60b1 673c
000000c0: cdb7 1abd 6021 923a 88e8 adba b707 68bc
000000d0: 8da3 85bd 3ad6 8fbd 546d a8bc e385 bbbb
000000e0: 670d 76bd 655b 353b 1c13 7dbd 6cb7 84bd
000000f0: 1f3b 0ebc d77c 81bd e806 63bd c6f6 b6bc
00000100: 411a 27bd 0722 5cbd 22bd 49bd 1970 c1bc
00000110: 5a4f 91bd b82b 3cbd 49ef 18bb 9ecf 0abd
00000120: befa 24bd c190 ea3a dafe 1abd 5f9c cebc
00000130: a2e8 2e3c 9d94 13bc 5cee 173d 0941 70bd
00000140: 32a7 5bbd 525a 23bd ce24 053c 3a71 3fbd
00000150: c1f3 49bd cdeb bfbc 23cc 213d 2f7b 093d
00000160: 307f ebbc bdad 33bd f9d9 97bc e668 d7bc
00000170: 9c6c 82bb 768c 05bd fa60 aa3c 8fd0 043c
00000180: ced9 1e3c 445f a1bc 0dc1 89bc e443 83bd
00000190: 4a23 9f3c 2008 3a3c 9cc9 203d 9209 5fbc
000001a0: b054 b53c 920a 85bb bda9 08bc 2897 b2bc
000001b0: 4ced 583c 4a95 60bc 6e9a febc 1d7f 2a3c
000001c0: aed5 803c f3d6 07bd 7f25 a4bc 853d 82bc
000001d0: 0b29 173d c3f7 083d 7596 8e38 7807 0b3d
000001e0: 78f4 fd3c 45ce 30bc 79a6 cbbc 93c1 18bd
000001f0: 6b06 633c b657 efba 9520 4bbd e32c bd3d
00000200: a89c 38bd bcf7 44bd 4903 96bd 2bc7 313b
00000210: af6e 3a3d 2d18 cf3c db7c 61bd 838a 023d
00000220: 9b3f 8d3d fde1 733d c11f f5bc 700b 72bd
00000230: d685 893c dd4f dfbc 2478 18bd b1a7 26bc
00000240: c465 193d 987b a2bb b5e2 11bd 8cca bc3d
00000250: 0768 0e3d bc62 c53c ecf2 1bbc df37 01bd
00000260: 1299 ed3c e7c6 7d3d 9582 0b3d 7e07 c0bd
00000270: aeff 89bd a613 edbc 5038 1e3c 57de d53c
00000280: e3ec adbc 832d 9ebd 3e39 94bd 7f65 f5bb
00000290: d7c0 f33a 72a6 a0ba a2f8 6bbd bda4 f5bc
000002a0: acc6 dc3c bd10 fd3c 74c5 3c3b a42f 9cbc
000002b0: dacc 053d 877e af3d 337a 953d 985a ffbc
000002c0: 1a55 5f3c 5c8d 05bc 6f42 81bc c06c 173d
000002d0: fe3d c63b f627 33bc f851 b33b 2c01 053c
000002e0: 40da 3c3c 101a 4c3b 405e 32bc 50ee 173d
000002f0: 445f e1bc bcdb 9c3c 094b 0ebd b18f be3c
00000300: c8ba d93c ce80 86bc aef8 bcbc 8f72 b3bc
00000310: c605 82bb a99d a3bc f86f 883b efc7 db3c
00000320: 6166 97bc 6c67 7bbc 376e 89bc a9b1 8fbd
00000330: 8b46 62bd 6728 96bd 46fe 6fbd 093d 5bbd
00000340: 02fa 9bbd 8e71 823b ef57 57bd a26c 253b
00000350: d286 8abb 3b67 18bd ba34 81ba 3afe 9ebc
00000360: 4dd7 ffbc 719d 99bd 9ee3 46bd 8d5d 0ebd
00000370: 5dd9 3cbd 301f 8cbd 02f7 5abd ed3b 883b
00000380: 006f 90bc cda3 02bc cc60 97bc 3a7f a6bc
00000390: 95ea acbb 56e9 42bd e8de dabc 208f c7bc
000003a0: 7411 82bd 864f c2bc 7f0d 7dbd ab26 6cbd
000003b0: c7a6 80bd a521 aabb 409a 40bb 1589 90bb
000003c0: 6e87 69bd f47a 95bd b213 7bbd 7de4 f8bb
000003d0: b618 68bc adf8 bebc b519 16bd 6f70 72bd
000003e0: 6ab6 6ebb 8030 173a 87b3 a0bc 84a6 9d3c
000003f0: 50f6 0d3c aaab 88bc 1c30 ed3c eadc ad3c
-0.018785382 -0.07251572 -0.05858124 -0.010418921 0.0011347164 -0.025045695 -0.03526361 -0.076359294
-0.022457017 -0.06650502 -0.013380904 -0.07073058 -0.037209515 -0.036562327 -0.075266324 0.00031495595
-0.020112608 -0.0071324627 0.0022151421 -0.016123552 -0.05593693 -0.046912163 -0.035739556 0.0021452631
-0.005354479 0.024844646 -0.037773397 0.021902986 0.037564315 0.008243993 -0.021803182 0.035944596
0.009203818 -0.031803764 0.008771043 0.0074599944 -0.0334229 -0.023848124 0.020288598 0.010287534
0.027056076 0.034015633 0.022520877 -0.0026917905 -0.013156634 0.014889948 0.019533407 0.014141411
-0.037772942 0.0011148863 -0.0013268152 -0.014161996 -0.065253355 -0.07023282 -0.020559944 -0.0057227476
-0.060071375 0.0027672884 -0.061785802 -0.064802974 -0.008681088 -0.063226394 -0.05542651 -0.022334468
-0.040796522 -0.05374339 -0.049252637 -0.023613023 -0.07095213 -0.04594013 -0.0023335984 -0.033889405
-0.04027819 0.0017895923 -0.0378407 -0.025221048 0.010675581 -0.0090076 0.03709255 -0.058655772
-0.053626247 -0.039881058 0.008126451 -0.04673884 -0.049304727 -0.023427868 0.03950132 0.033564743
-0.028747171 -0.04386686 -0.018536555 -0.026295137 -0.0039802324 -0.032604657 0.020798195 0.008106365
0.009695483 -0.019698747 -0.016815687 -0.064094335 0.019426007 0.011354476 0.03925477 -0.013613122
0.022135109 -0.004060098 -0.00834125 -0.021800593 0.01324017 -0.013707468 -0.031079497 0.010406283
0.01572689 -0.033163976 -0.02003741 -0.015898475 0.036904376 0.03343941 6.7991125e-05 0.03394267
0.03100036 -0.010791366 -0.024859654 -0.03729398 0.013856511 -0.0018260393 -0.04959162 0.09237077
-0.045071274 -0.04808782 -0.07324845 0.002712677 0.045515712 0.025280083 -0.055050712 0.031870376
0.068968974 0.05954169 -0.029922368 -0.05909294 0.01678745 -0.027259761 -0.03722395 -0.010171817
0.037450567 -0.004958581 -0.035616595 0.0921832 0.034767177 0.024094932 -0.009518366 -0.031547423
0.029003654 0.061957266 0.03406008 -0.09376429 -0.0673822 -0.028940033 0.009656981 0.026106996
-0.02123112 -0.077235244 -0.072374806 -0.007488906 0.00185969 -0.0012256636 -0.05761016 -0.02998578
0.026950203 0.03089177 0.0028804215 -0.019065686 0.032666065 0.08569055 0.07298698 -0.031171128
0.01363113 -0.0081513785 -0.015778748 0.036968946 0.0060498705 -0.01093482 0.005472418 0.008117955
0.011526644 0.0031143464 -0.010886729 0.037092507 -0.027511247 0.019147746 -0.034739528 0.023261877
0.026578322 -0.01641884 -0.023067798 -0.021905212 -0.0039679734 -0.01997264 0.0041637383 0.026828734
-0.018481435 -0.015344482 -0.016776187 -0.07016308 -0.055243056 -0.07331925 -0.058592103 -0.053525005
-0.076160446 0.003980822 -0.052574094 0.0025241752 -0.0042274976 -0.037207823 -0.0009857633 -0.019408334
-0.031230593 -0.07500733 -0.048556916 -0.034757186 -0.04610573 -0.06841886 -0.05345822 0.0041575343
-0.017631054 -0.007973623 -0.018478774 -0.020324338 -0.005276988 -0.047585808 -0.026717618 -0.02436024
-0.06350985 -0.02371956 -0.06178045 -0.057654064 -0.0628181 -0.005191999 -0.0029388815 -0.0044108727
-0.05701392 -0.07298842 -0.06129808 -0.0075955973 -0.014166048 -0.023311937 -0.03664561 -0.059189256
-0.0036424645 0.000576742 -0.019616855 0.01924444 0.0086646825 -0.016683418 0.028953604 0.021223504

conv2.bias f4 [32]
00000000: ef92 3abd 9dd3 43bd 3949 a23c f67d d4bd
00000010: 08d1 84bd 56ce 10bd 2b15 82bd 4cae 21bd
00000020: 7349 70bd 50dd 07bd 20f2 29bd 89a5 aabd
00000030: b8b9 e3ba 6216 23bc 9609 e9bc 3ba0 09bd
00000040: 3be1 02be bf43 0cbd b4bd 4bbd b3f5 a7bc
00000050: 3047 edbd 7ff8 8bbd d5ac 26bd 7571 74bd
00000060: dbdb dcbd 720b c5bd 8e57 c4bb e258 a3bd
00000070: 26cd dfbd 736e aebd 7f43 1dbd ec72 1abd
-0.045550283 -0.047809232 0.019810306 -0.10375588 -0.06485182 -0.035353027 -0.06351694 -0.039472863
-0.058663797 -0.033170044 -0.041490674 -0.083323546 -0.0017374074 -0.009954067 -0.028446954 -0.033600073
-0.12781231 -0.034244295 -0.049741462 -0.0205029 -0.115858436 -0.06834506 -0.04069217 -0.059678514
-0.107841216 -0.09621324 -0.0059918826 -0.079759374 -0.10927801 -0.0851716 -0.038394447 -0.037707254

conv3.weight f4 [64, 32, 5, 5]
00000000: 2218 f7bc 0092 893a 1a59 b1bc ea2e 85bc
00000010: 0e90 0dbc 8ead bfbc f888 243c 408a 053c
00000020: 3863 bebb 7041 b5bc c067 42ba b7ad e6bc
00000030: 40db 0f3c 104b 323b 0c46 c53c 1faf a5bc
00000040: d4c5 373c 3970 083d 6446 9cbc 3a2a 0fbc
00000050: d69e 07bc b7d5 97bc ac98 3a3c 5e25 923c
00000060: 644c 6cbc daf6 1e3d 05be 393d 982e df3c
00000070: 0f5b 2a3d aed6 a03c e1a7 a1bc 686a 69bc
00000080: 70fb 7cbc 8e96 50bd 4c47 a23d 2bcf 90bd
00000090: 74e7 45bd 04e6 3dbd 4424 9fbd bd23 9b3d
000000a0: 0b3a 39bd 472b 1bbd 7ae4 44bd 00f4 d6bc
000000b0: ae15 543d 15a9 b4bd 5f20 9ebd 9b15 8fbd
000000c0: 526f 48bd e3de 263d c22b a8bc d886 d83b
000000d0: e098 0ebb 8c74 46bc 803b 62ba 1cc7 9dbb
000000e0: 7cbc fcbc 880b 133c 62a8 e6bb a400 473c
000000f0: 6865 ed3b 88b3 c03c be6d c83c dfc5 0f3d
00000100: f2a5 c63c fe31 f23c 8bb9 023d e489 92bc
00000110: 2024 b83a d4d9 b5bc 0fb5 0abd 004c cf3b
00000120: af53 c5bc 54ed a2bb 600b 8f3a 6f0a ffbc
00000130: bcb8 acbc cc6b 51bc 9ef0 ff3c 702b 513b
00000140: 3cd5 c43c 7add 473d e226 9c3c a27d b9bb
00000150: af16 2dbc ed88 9fbc 4327 0b3d eee9 05bd
00000160: 7c4e d6ba d6e5 8a3c b4d9 2f3c 94c7 b3bc
00000170: e418 77bc 12d5 e43c 9826 db3b 5adc 8d3c
00000180: f99f 4fbc aa4c f23c a0e7 1e3c 3ce1 ecbb
00000190: 06a0 bdbc 92df 88bd 54af 9bbd 6152 a8bb
000001a0: b014 49bd dc39 6dbd c229 3bbd b17e 96bd
000001b0: 8864 54bd 7c6e 9dbd 8482 74bd d594 f2bc
000001c0: 73fb 15bd 6a00 0fbd c845 19bd a2a8 99bc
000001d0: 8366 87bd 8caa bdbc e4e8 a1bc 25bc 0cbd
000001e0: 4872 f03c 296e 843d 7cdd 833d 82de 9a3d
000001f0: e1cb 4dbd cbea cc3d f389 1f3d 34ac ff3c
00000200: 7006 ad3d 1b5f b2bd e215 9bbd f0cc 14bd
00000210: 3841 87bd c6e2 a2bd 97f4 bc3c cf57 6bbd
00000220: a4ec 9ebd 75ed 98bd 029e 8dbd c437 6e3d
00000230: d261 84bd 04e7 23bd c7ea 81bd 27f5 41bd
00000240: 36d9 2e3d 2b8e 55bd bd79 88bd 0dbc 39bc
00000250: 7c06 9fbc 0a4a e23c c923 fb3c 325f 63bd
00000260: f6f8 71bd 259c 53bd 36cd 38bd 8cbe 1a3d
00000270: f003 83bd 7109 a6bd d94f a8bd 5bbd 9bbd
00000280: c8d8 893d 102a 2abd 4e96 b9bd 9444 1dbd
00000290: a012 f3bc f89f 233d 106e 8abd 0665 91bd
000002a0: af4a 7fbd 1b60 06bd c4f5 af3d 61a8 0d3d
000002b0: c707 f83c 9cf1 4c3d 1798 69bd ae6d 483d
000002c0: 5a66 823d ab8d 963d 741d 793d c81f adbd
000002d0: c015 3dbd 0eb2 21bd acd1 a9bd d7db 43bd
000002e0: 1bf3 e03c a2cf a0bd d120 99bd 3c05 b4bd
000002f0: 6778 c9bd 1955 bdbb 1621 d0bc f55c 06bd
00000300: 091b 5ebd 2e06 5bbd 50bb 683b 8213 47bd
00000310: 92ea e5bc 2095 95bc a28a 4fbd 1117 d13c
00000320: 4cd9 413d bcbb 37bd 4f7e ac3c 4828 0a3d
00000330: ebaa 9cbd 4719 9b3d 493b b2bd 016d a8bd
00000340: 28c0 a4bd e163 85bd 6b17 ad3d 8aba 20bd
00000350: e342 aebd 4de4 3fbc 127e 0fbd 9528 7b3d
00000360: fe98 9cbd c2eb c4bd 81c7 d6bc ba9c 62bd
00000370: 488e b73c a202 973c b151 3c3d 15eb 8b3d
00000380: fd4c 4cbd ce25 c5bb e214 523d 8995 923d
00000390: eb7a 533d 9eb7 11bb 9df9 94bd bd93 04bd
000003a0: 11ad 82bd 9329 20bd 3351 913c 9504 b5bc
000003b0: d777 56bd 14cc 85bd 08a5 57bd acb1 a63c
000003c0: 6d65 57bd 1417 70bd 4ae8 78bd b49b 8abd
000003d0: fe4d a03d 0fc1 23bd 930d 0cbd 5b34 6dbd
000003e0: 18ba 8bbd 063d 833d 7eb4 083d cdc1 243d
000003f0: 3b61 693d abb5 323d 4554 a0bd 1ca8 63bd
-0.030162875 0.0010495782 -0.021648932 -0.016257722 -0.008640302 -0.023398187 0.0100424215 0.008150637
-0.0058101676 -0.02212593 -0.00074159727 -0.028159006 0.008780301 0.0027205385 0.024081253 -0.020225106
0.0112165995 0.03331015 -0.019076534 -0.008738095 -0.0082776155 -0.018534524 0.011388939 0.017840084
-0.01442251 0.038809635 0.045347232 0.027243897 0.041590746 0.019633617 -0.019733371 -0.014246561
-0.015440807 -0.05092483 0.07923755 -0.07070764 -0.048316434 -0.046361938 -0.07770589 0.07575176
-0.04522137 -0.03788307 -0.048069455 -0.026239395 0.051778488 -0.08821312 -0.07721018 -0.06986543
-0.04893429 0.040739905 -0.020528678 0.0066078715 -0.00217586 -0.012112748 -0.0008630082 -0.0048149955
-0.030851595 0.008974917 -0.0070391158 0.012146149 0.0072447546 0.023523107 0.024466392 0.035100814
0.02424905 0.029564854 0.03191523 -0.017888017 0.0014048852 -0.022198595 -0.033864077 0.0063261986
-0.024087755 -0.0049721394 0.0010913424 -0.031132905 -0.021084182 -0.012782048 0.031242665 0.003191676
0.02402746 0.0487952 0.01906151 -0.0056607286 -0.01056449 -0.019474471 0.03397299 -0.032693796
-0.0016350294 0.016955297 0.010733057 -0.021945752 -0.015081618 0.027933631 0.0066879503 0.017316986
-0.012672418 0.029577572 0.009698778 -0.0072289985 -0.023147594 -0.06683268 -0.076018006 -0.0051367735
-0.049091995 -0.057916507 -0.04569412 -0.07348383 -0.051853687 -0.07687089 -0.059694782 -0.029611984
-0.036616754 -0.034912504 -0.037420064 -0.018757168 -0.066113494 -0.023152612 -0.019764371 -0.034359116
0.029351369 0.06466324 0.06438729 0.07561971 -0.050243262 0.10005721 0.038949918 0.031210043
0.084484935 -0.08709546 -0.07572533 -0.036328256 -0.06604236 -0.0795341 0.023065848 -0.057456788
-0.07759979 -0.07467166 -0.06914903 0.05815865 -0.0646397 -0.040015236 -0.06343608 -0.047352936
0.042687617 -0.052137535 -0.06663845 -0.011336339 -0.019412272 0.027623195 0.030656712 -0.055510707
-0.05907532 -0.051662583 -0.04511758 0.037779376 -0.063972354 -0.081072696 -0.08218355 -0.07604476
0.06730801 -0.04154402 -0.090618715 -0.03839548 -0.029671967 0.03994748 -0.06759274 -0.07099347
-0.062327083 -0.032806497 0.08591798 0.034584407 0.030277146 0.050035104 -0.05702981 0.048932724
0.06367178 0.0735124 0.060819104 -0.084533274 -0.04616332 -0.039476447 -0.08291945 -0.047817077
0.027459672 -0.07852103 -0.07476962 -0.08790061 -0.09837418 -0.0057779667 -0.025406402 -0.032803494
-0.054225 -0.05347269 0.0035512038 -0.04860259 -0.028065953 -0.018259585 -0.05066932 0.025523694
0.04732637 -0.04485677 0.021056322 0.03372982 -0.076497875 0.07573181 -0.08702714 -0.08223916
-0.080444634 -0.06513191 0.08451732 -0.039240398 -0.085088514 -0.011712146 -0.03503234 0.061318
-0.076463684 -0.0961528 -0.026218178 -0.055325247 0.022406712 0.018433873 0.045976344 0.06831948
-0.04987811 -0.0060164696 0.051289447 0.07157428 0.051630896 -0.0022234689 -0.072741725 -0.032367457
-0.06380666 -0.03910215 0.017738914 -0.022096911 -0.052360382 -0.065330654 -0.05264762 0.020348392
-0.05258696 -0.05861576 -0.060768403 -0.06767979 0.07827376 -0.039979037 -0.034192633 -0.05791126
-0.06822604 0.06408124 0.033375256 0.040223885 0.05697749 0.043630283 -0.07828573 -0.055580243

conv3.bias f4 [64]
00000000: 368d 2abd 95b6 90bc 0b3d 003d 2fd7 25bd
00000010: ee5b 2a3c 7466 62bd 391b 6dbc e158 00bd
00000020: 3bdb 36bd 2acf 9e39 4114 4ebd 6e47 493c
00000030: 06e0 98bd b199 6c3d cfbb 8abc 94af bfbd
00000040: 66a0 e8bd f589 44bd 9e9e 8ebd 0d8b 3dbd
00000050: 6127 afbc 418e c0bd ebfd b2bd 8193 d1ba
00000060: 66ef e1bd a7c0 71bd 0e67 28bd f215 98bd
00000070: 1676 e93a cee0 c3bc dd6c 6fbd 58e3 6dbd
00000080: d2d0 bcbd dd7d 41bd f166 dfbd a71d 5dbd
00000090: c7f1 50bd 2cd2 d2bc 14ac 78bd 3d97 86bd
000000a0: 16b7 c2bc 5e43 debb cb7b 61bd 4fd0 26bd
000000b0: 35ff 44bd f476 fabd 2e70 70bd 5fb0 b1bd
000000c0: 61ae ab3b ba92 98bd d197 a2bd b43d 09bd
000000d0: 4155 e9bc 18f3 17bd 2331 bfbc 449b 47bc
000000e0: cdff ea3b e344 583c 8b09 92bd 1b24 90bc
000000f0: c87d 55bd 90c5 f1bd 1d47 cbbd f21b e0bc
-0.041638575 -0.017665187 0.031308215 -0.04048842 0.010397894 -0.05527349 -0.014471822 -0.03133476
-0.04464267 0.00030290458 -0.050312284 0.012285097 -0.07464604 0.05776376 -0.016935257 -0.09359661
-0.113587186 -0.04798313 -0.069638476 -0.046275187 -0.021381082 -0.09402133 -0.08739837 -0.0015989394
-0.1103199 -0.05902162 -0.041113906 -0.07426061 0.0017811682 -0.023910906 -0.05845343 -0.05807814
-0.09219517 -0.047239173 -0.109083064 -0.053983357 -0.051011827 -0.025734983 -0.06071098 -0.06571815
-0.023768943 -0.006782933 -0.0550497 -0.040726002 -0.048094947 -0.1222972 -0.058700733 -0.08676218
0.0052392934 -0.07449861 -0.07939113 -0.03350611 -0.028483035 -0.037097067 -0.02333886 -0.012183014
0.007171607 0.013200018 -0.071307264 -0.017595341 -0.052121907 -0.1180526 -0.09925673 -0.027357075

conv4.weight f4 [64, 64, 3, 3]
00000000: 0e18 b8bc 735c a5bc 0c0a 11bd 2006 f9bc
00000010: 7053 67bb 4a98 f73c ae94 20bd 3046 0abd
00000020: 2afb 953c 6002 b33b f294 01bd ae06 dbbc
00000030: cdb8 1c3d f4af 043c 78d6 d73b ee16 803c
00000040: a82c 963b 7efb d8bc a3bb 273d 5df2 3dbd
00000050: ba2d 603c 520f b43c 740d 35bd 6f6e 3ebd
00000060: 8069 8fbc 9cf4 15bd e275 bf3c 64a0 13bc
00000070: 854e 1abd 8008 623d 00c8 70bb 0cbd 85bd
00000080: 6d7f a83c 4079 8a3b c06e 573b 2d3e 0b3d
00000090: 7010 10bb e1f0 90bd 8c6b 153d 5c17 673c
000000a0: 2030 bdbd a5ea dfbc f342 073d 0047 073b
000000b0: e0fe ceba 6646 7dbc 167b d93c cf55 24bd
000000c0: 6f64 06bd 7543 163d 0f3c 0d3d 7a65 f73c
000000d0: 117c 043d 14f3 03bd 18ef df3b 223a c83c
000000e0: 40cd 84bc 9689 863c f691 55bc b6fb a73c
000000f0: 76fb dc3c edc8 013d 20af aaba 8872 eabb
00000100: a687 3abc b6d5 82bc 8836 0abd d2b1 c13c
00000110: f68a 2cbc c002 823c 9c15 073c db95 9bbc
00000120: 1693 97bc ac61 2e3c e041 833b 8e02 d7bc
00000130: 607d debc 1a92 f03c 9c4c 0bbc 0e23 dcbc
00000140: 2b2b 253d 6e97 10bd 134d 02bd d050 ab3d
00000150: 35c0 103d 8f52 e9bc 73c4 c2bd 4ba1 c4bc
00000160: f9d2 203d 80fa 6fbb 7f6c 173d 4404 1a3c
00000170: 9b57 133d f05c 4bbc 4881 dbbc aaa4 cc3c
00000180: 10cf 1b3c c4bb 4c3c 58ce d1bc c0f9 42bc
00000190: 001a bd39 e25f d63c 708d 41bb 4887 73bd
000001a0: f3e2 fcbc bcc4 47bc 1935 053d 66fe 57bc
000001b0: 60d4 2a3c a492 5f3c 9c43 0fbc 1086 14bc
000001c0: d2d2 14bd 8081 2abd 8669 55bc 5643 68bc
000001d0: 0485 7e3c 409a 273a 36fa 873d 7a9f 4a3b
000001e0: 4337 d1bc ac7d de3c 2971 7b3d 001d 1f3b
000001f0: 2052 8f3c c25c 27bd 6494 293c 3e53 b7bd
00000200: 32ae 9d3d 6bf0 15bd fe76 55bd 02d6 1fbd
00000210: 00a3 4739 2890 9c3b 1a33 1cbd f0a9 a7bc
00000220: ef66 23bd 4856 85bc 9065 3e3b fbcf 24bd
00000230: c3cc 29bd b5ac 063d 18a2 d43b 9a3e de3c
00000240: 02fd ed3c 9a44 ac3c 508f 41bc bcf9 13bd
00000250: 1b2f aebd d6fc 3dbc 5285 21bd 883e b5bc
00000260: 525c f33c 782d e2bb 6874 bd3b 20b9 a4bc
00000270: 4026 e03b 84e9 06bc 10f0 29bd 3bac 90bc
00000280: dbec 92bc 2c70 693c d575 2a3d 2345 363d
00000290: 7e1f babc 4658 37bc 5e10 9ebd 5234 04bd
000002a0: 4b8d c2bc 0003 3aba eecb ed3c 69bd 123d
000002b0: 5d86 123d 109c ddbc 4866 a93c 4ad7 ad3c
000002c0: b67b e8bc 9031 013b 33e1 8dbc 30cf 84bc
000002d0: fc8f 433c f193 36bd 94bd c53c 18b4 a4bc
000002e0: 1f2b bebd bb19 bebc f0ec afbc b812 aa3b
000002f0: 98a3 a9bc ec4c 54bc ede8 063d 60f9 d53b
00000300: 009d a33a 9aa9 a43c b6b2 4fbc a0f8 8cbc
00000310: f97a 093d 043a 1e3c 6412 113c cc4d 61bc
00000320: 5bd9 5a3d beb6 84bc 40e6 5ebc dcbb 03bd
00000330: 207e a2ba 53b4 89bc 783e f4bb 16b8 af3c
00000340: ce56 e5bc c748 18bd 48a7 a9bc 072a 0e3d
00000350: 4a90 ad3c 8013 c539 14b3 753c baea bd3c
00000360: 90da 9d3c a35f 9dbc 0340 253d e009 c43a
00000370: f922 203d 2ad7 a23c 8cf3 563c 601a c7bc
00000380: b828 873b 1466 623c 02cc d33c 06fc 0ebd
00000390: 8052 6ebb 80b2 883c 8c9a 593c 48e6 813b
000003a0: 4e34 ddbc 21eb 023d ed65 043d 2a5f 8bbd
000003b0: 5c9b f23c 089f eabc e9d9 0cbd 4f85 6bbd
000003c0: 1a18 01bd fb1e d8bc 967b 943c e8ca aebb
000003d0: ba61 a83c 289e 873b 8004 f839 d8ad fc3b
000003e0: 3bd0 e5bc 885c 9cbc 20b3 1d3c 7d34 163d
000003f0: 0021 83ba 9586 6bbc 2151 8d3c 5aca fd3c
-0.022472408 -0.020185685 -0.035409972 -0.030398428 -0.0035297535 0.030223984 -0.039204292 -0.033758342
0.01830824 0.0054629296 -0.031636186 -0.026736584 0.038262177 0.008098591 0.006586846 0.015635934
0.00458296 -0.026487108 0.04095043 -0.046373714 0.013682777 0.021979962 -0.044202283 -0.046492036
-0.017506361 -0.03661023 0.02337164 -0.009010408 -0.03767254 0.055183887 -0.0036740303 -0.065301985
0.020568574 0.00422588 0.0032872409 0.033994842 -0.0021982454 -0.07077194 0.036479518 0.01410469
-0.09237695 -0.027333567 0.033022832 0.0020641685 -0.0015792511 -0.015458679 0.02654795 -0.040120896
-0.032810625 0.036685426 0.034481104 0.030199755 0.03234488 -0.03221424 0.006833922 0.024441782
-0.016211152 0.016423028 -0.013035288 0.020505767 0.026975375 0.03168576 -0.0013022162 -0.0071547665
-0.01138488 -0.015971046 -0.03374341 0.023644362 -0.010531178 0.015870452 0.008244898 -0.018992355
-0.018502753 0.010643404 0.0040056556 -0.026246335 -0.027159393 0.029366542 -0.008502152 -0.026872184
0.04032437 -0.035300665 -0.031811785 0.08365023 0.035339553 -0.02848175 -0.09510126 -0.024002692
0.0392637 -0.0036617815 0.036968704 0.009400431 0.03597222 -0.012412295 -0.026795045 0.024980862
0.009509817 0.012495939 -0.025611088 -0.011900365 0.0003606826 0.026168767 -0.0029533766 -0.059455186
-0.030869937 -0.012192901 0.03252134 -0.013183212 0.010426611 0.013645802 -0.008744147 -0.009065166
-0.036333866 -0.041627407 -0.013025647 -0.01417621 0.015534643 0.00063935295 0.06639521 0.003091781
-0.025539046 0.027159534 0.061387215 0.002427876 0.017495215 -0.040859945 0.0103503205 -0.08951424
0.07699241 -0.036606234 -0.052115433 -0.039022453 0.00019038841 0.004777927 -0.03813467 -0.020466775
-0.039893087 -0.016276494 0.0029052235 -0.040237408 -0.04145504 0.03287955 0.0064890496 0.02712946
0.029051308 0.021028806 -0.0118139535 -0.036126837 -0.085050784 -0.011595925 -0.039433785 -0.022124544
0.029707108 -0.006902393 0.005781699 -0.020107806 0.0068404973 -0.008234385 -0.041488707 -0.01766025
-0.017935207 0.014247935 0.04161628 0.044499528 -0.022720095 -0.01119048 -0.077179655 -0.03227646
-0.023749014 -0.0007095784 0.029027905 0.035825167 0.03577267 -0.027051955 0.020678654 0.021220822
-0.028379302 0.001971338 -0.017319297 -0.016212076 0.011936184 -0.04457468 0.02413825 -0.020105407
-0.092855684 -0.023205629 -0.021475285 0.0051902197 -0.02070789 -0.012957793 0.03293698 0.006529972
0.0012482703 0.020100404 -0.012676885 -0.017208397 0.03356454 0.009657387 0.008854482 -0.013751458
0.053429943 -0.01620042 -0.013604701 -0.03216158 -0.0012397207 -0.016809618 -0.007453736 0.021450084
-0.027995493 -0.03717878 -0.020709649 0.03470805 0.021186966 0.00037589297 0.014996309 0.023183215
0.019269258 -0.019210642 0.04034425 0.0014956556 0.039095853 0.019877989 0.01311959 -0.024304569
0.004124727 0.013818283 0.025854114 -0.034908317 -0.0036365092 0.016686678 0.013281476 0.0039642192
-0.02700248 0.031962518 0.032323766 -0.068052605 0.029615097 -0.028640285 -0.034387503 -0.05750018
-0.031517126 -0.02638196 0.018125337 -0.005334247 0.020554412 0.0041387267 0.000473056 0.0077111535
-0.028053394 -0.019087091 0.009625226 0.03667115 -0.0010004342 -0.014375349 0.0172506 0.030980278

conv4.bias f4 [64]
00000000: aa42 8cbd 486c b4bd ab05 8fbd 286e 17bd
00000010: 83dc dbbc c847 babd e25e 43bd dbb5 05bd
00000020: 19a6 fa3c bf4b fbbc 6dac afbc ed47 dbbc
00000030: 10e4 0fbd 6d08 243d 9a0e 673c cc33 993d
00000040: 5743 a83c 9e3f 70bd 04ca 03bc 2131 4f3d
00000050: 504b bcbc 3f22 c9bd 93d0 58bd 0d8e 9cbd
00000060: 16c6 6dbd 361b 0f3d 1677 1d3d fe2b b6bd
00000070: 22a2 82bd 0386 aebd 074c bfbc 4738 6dbd
00000080: b1bc e2bc 7e8d e1bc 4734 3dbd 4788 00bd
00000090: 4695 66bd e5bb b8bc 7eb7 52bd 859a 3fbd
000000a0: b5c8 b1bd 09f9 dbbc a779 183d 3865 c1bc
000000b0: 0518 663c 13ed 7ebd 3711 873b 02f1 6bbd
000000c0: 7e12 13bc 3c8b 01bd f371 10bd 905c 5ebd
000000d0: ee8a 013d 8a13 a6bd 05ed 41bd 64d8 28bd
000000e0: 3d65 9b3d 1631 8abd 6a76 a8bd 9708 95bd
000000f0: f1fa b1bd 42aa 40bd db64 6ebd b8fd e13c
-0.06848653 -0.088097155 -0.06983503 -0.036970288 -0.026838547 -0.090957224 -0.04769791 -0.032644134
0.03059678 -0.030675767 -0.021444524 -0.026767695 -0.035129607 0.040047098 0.014102602 0.074805826
0.020539923 -0.05865442 -0.00804377 0.050583962 -0.02298513 -0.09820985 -0.052933287 -0.076442815
-0.058050238 0.03493806 0.038443647 -0.088951096 -0.06378581 -0.085216545 -0.023351682 -0.057915
-0.027677866 -0.027533289 -0.046192434 -0.031379964 -0.056294702 -0.022550533 -0.051444523 -0.04677822
-0.0868086 -0.026852148 0.03722539 -0.023607835 0.014043813 -0.06223781 0.004121925 -0.05760289
-0.008976577 -0.031626925 -0.03526492 -0.054287493 0.031626634 -0.081091955 -0.04734518 -0.04122199
0.07587669 -0.06747644 -0.08225711 -0.07277029 -0.086904414 -0.04703737 -0.058201652 0.027586803

conv5.weight f4 [64, 64, 3, 3]
00000000: c904 0b3d ebb4 d1bc 7cfc 61bc 8b50 fdbc
00000010: a309 c2bd 2154 1a3d e6a0 a13c c040 633c
00000020: 6cb3 18bc 9be9 05bd 8d48 093d a08c 77bc
00000030: 1075 3c3c c2bb 91bd a70a 1abd e0a2 f3ba
00000040: de69 c13c 804d 17bd 70db 4dbc 0cb6 1abc
00000050: 2b0c dfbc 13d5 91bc 8c60 92bd 5c64 48bc
00000060: 43a6 a5bc c874 b2bc 27b9 253d 7895 9b3c
00000070: 944b 703c 12c2 05bd 97ed 16bd ed20 5abd
00000080: d15a 163d a5fa 213d 9c1a 473c 484d 0ebd
00000090: acd4 1d3c 2a91 21bd e077 e1bc 4ca8 12bc
000000a0: 9e90 00bd 6aaf c23c 03e1 babc b8e5 0ebd
000000b0: 6ff5 073d db96 dcbc 6bee 98bc 8f72 01bd
000000c0: 5c27 01bc be3e adbc 00c4 cd39 c045 0cbc
000000d0: 715c 163d 7889 d2bb cc0f 4bbc a114 023d
000000e0: f5b8 0b3d 244d 573c c97b b1bc e689 10bd
000000f0: 0cb0 33bc b00d 003c 005f 6639 c044 fb3b
00000100: efb4 093d e6e2 3fbc d6f8 07bd 524a 5abd
00000110: dbfa cebc 90ed 1cbd c0a1 1a3c c025 bebb
00000120: 77c5 1abd 7ab9 a13c e041 c43b 4030 a3bc
00000130: 1822 62bd d217 ef3c 1041 27bc c41e 24bc
00000140: 323d f03c 37eb 163d f0a7 35bc 6000 afba
00000150: e481 1bbc 6081 b5bd b03f 063b 5aea f73c
00000160: 1c56 07bc 00d8 80b9 e521 133d 8006 f7bc
00000170: c0d4 29bc 2826 f4bb 6855 d9bc 6ad4 cd3c
00000180: c173 0f3d d28d f43c f002 22bb dac5 cd3c
00000190: 989d 87bc 009e 7c3b a61e ab3c 26ad ce3c
000001a0: 708c 93bc b4ea 663c 70e6 3d3b 3810 953c
000001b0: bb03 033d fa29 c73c f88d b2bc 7a91 d93c
000001c0: cd7c 09bd d204 b33c 4617 17bd df49 1bbd
000001d0: 1aad ff3c f2b6 fb3c 985d e83b b639 35bc
000001e0: c8c7 e8bc fd57 a4bc b253 9e3c 2800 fbbc
000001f0: 5c62 27bc 8054 a6bb 987f d7bc d66b fc3c
00000200: eef7 acbc d02b 63bb ca69 adbd 7099 cebc
00000210: a6af f93c edee 113d 1628 d43c 76f8 c73c
00000220: 0097 193a 0ca3 12bc fde4 183d 05ba b7bd
00000230: dedb bfbc f0d1 5f3b e099 9a3a 60af 943a
00000240: c5d5 1b3d 461e 983c 43c4 d7bc 4a69 ae3c
00000250: 494a 4abd ce2e 97bc 7809 f33b c024 e43b
00000260: d620 a43c b68c e73c a0a1 e2bc 2b40 263d
00000270: 40a2 973c f3ff 8dbd 38f9 d3bc f0e6 c9bc
00000280: 0e0f 913c e0c6 d73a f6ec 2dbc c27a e33c
00000290: 04f2 18bd 0038 4739 ee3e 96bc a8d1 8e3b
000002a0: 75e7 0b3d b4dd 253c 8816 9c3c 3655 7cbc
000002b0: 7640 4cbc 1a8b 06bd e622 4bbc d527 9cbd
000002c0: 8a4d f43c 08ae 85bb 1708 17bd 0065 4d39
000002d0: a0e0 c53b 1db2 0c3d be06 afbc 98da bdbc
000002e0: 2cd8 00bd 0b88 9ebc 03a6 8fbc 96f5 c23c
000002f0: ee2c d4bc 4bb7 1f3d e028 c1bb 1412 323c
00000300: 001e c4b8 4df4 8a3d 7efb 983c 9a45 8b3c
00000310: 3e61 ab3c 3971 173d 8226 15bd 809a fc3b
00000320: 1a51 993c b8e1 e7bc 31c9 abbd 9a46 04bd
00000330: 6c25 703c b17c 143d 6363 eabc e08e 053c
00000340: b88f 25bd 8a72 23bd 62bd f73c 19d0 9abd
00000350: e38e 10bd 20d1 df3a 803e a0ba 7e0b b4bc
00000360: 104b 5dbb e04a adbb b0e1 313b f0e1 c1bc
00000370: f97e 123d dc9b 7e3c 9010 77bc 68d0 80bc
00000380: f070 6cbc 431a 01bd bd32 083d 68c1 aabb
00000390: 6f38 1f3d b3c4 c1bd 404b 24bb 902f 093c
000003a0: 477f 1abd b85e dc3b cdc2 013d 50b8 bbbc
000003b0: 6086 c4bc b919 0b3d a41b a3bd 80f1 fab9
000003c0: 8da4 283d c019 0eba 9312 273d f084 2bbb
000003d0: 4ac1 d23c e2f2 28bd 5170 003d 92a3 33bd
000003e0: 197b 003d fc40 0fbd 06a6 48bc 5bba 1a3d
000003f0: f234 e23c b4da 6a3c c002 15ba 2a13 933c
0.03394011 -0.025598964 -0.013793107 -0.030922195 -0.09474494 0.037677888 0.019730043 0.013870418
-0.009320121 -0.032693487 0.033516455 -0.015109211 0.011502519 -0.0711589 -0.037607815 -0.0018587969
0.023610052 -0.036939144 -0.012564525 -0.009442817 -0.027227482 -0.017801797 -0.07147321 -0.012230959
-0.020220881 -0.021784201 0.04045978 0.01899217 0.014666457 -0.032655783 -0.036847677 -0.053254057
0.036707703 0.039545674 0.01215234 -0.03474167 0.009633224 -0.03944508 -0.027522981 -0.008951258
-0.031387918 0.023765285 -0.022812372 -0.034887046 0.033193048 -0.026927402 -0.018668374 -0.031603392
-0.007882919 -0.021148082 0.00039246678 -0.008561552 0.036709253 -0.006425079 -0.012393903 0.031757955
0.034111936 0.01314095 -0.02166547 -0.03528776 -0.010967266 0.007815763 0.000219699 0.0076681077
0.033619817 -0.011711812 -0.033196293 -0.053293534 -0.025266102 -0.038312495 0.009437978 -0.00580284
-0.037785973 0.019741762 0.005989298 -0.019920468 -0.055208296 0.029186163 -0.010208383 -0.010017101
0.029326055 0.036845412 -0.011087403 -0.0013351552 -0.009491418 -0.08862567 0.0020484738 0.030263115
-0.008260276 -0.00024574995 0.035920996 -0.030154467 -0.010365665 -0.0074508376 -0.026529983 0.025125701
0.0350225 0.029852781 -0.002472099 0.025118757 -0.016554639 0.0038546324 0.020888638 0.025229048
-0.018011302 0.0140940435 0.0028976463 0.01819621 0.03198598 0.024312008 -0.021796212 0.026558626
-0.033566285 0.021852884 -0.03688743 -0.037912246 0.031210471 0.030726884 0.0070912354 -0.011061123
-0.028415576 -0.020061487 0.019327018 -0.030639723 -0.010216322 -0.005075991 -0.026305959 0.030813139
-0.021114316 -0.0034663565 -0.08467443 -0.02521965 0.030479264 0.035628248 0.02589802 0.024410468
0.00058589876 -0.008950006 0.037327755 -0.08971027 -0.02342027 0.0034152232 0.0011795126 0.001134377
0.038045663 0.018569123 -0.026338702 0.02129044 -0.04938725 -0.018454935 0.0074169002 0.0069623888
0.020035189 0.028265338 -0.02766496 0.04058854 0.018509984 -0.06933584 -0.025875673 -0.024646252
0.017707374 0.0016462468 -0.010615578 0.027768496 -0.03734018 0.0001899898 -0.018340554 0.004358489
0.03415628 0.010123659 0.019053712 -0.015401175 -0.012466541 -0.0328475 -0.012398457 -0.07624785
0.02982213 -0.004079584 -0.03687295 0.00019587949 0.0060387403 0.03434955 -0.02136552 -0.023175523
-0.031456158 -0.01935198 -0.017535215 0.023798745 -0.02590033 0.03899316 -0.0058947653 0.010868568
-9.351596e-05 0.06784878 0.018674608 0.017000962 0.020920392 0.036973212 -0.036413677 0.0077088475
0.01871543 -0.028305873 -0.083879836 -0.032293893 0.01465736 0.036251727 -0.028611844 0.00815174
-0.040420264 -0.039904155 0.030241672 -0.07559223 -0.035292517 0.0017075874 -0.0012225658 -0.021978136
-0.0033766665 -0.005288467 0.0027142577 -0.023667306 0.03576562 0.015540089 -0.015079632 -0.015724376
-0.014431223 -0.031519186 0.033251513 -0.005211044 0.03887218 -0.094613455 -0.0025069267 0.008373156
-0.037719037 0.0067251585 0.031679917 -0.022915035 -0.023989856 0.033960078 -0.079642564 -0.00047863647
0.041172553 -0.0005420707 0.040789198 -0.0026171766 0.025726933 -0.041247256 0.031357113 -0.043857165
0.031367395 -0.034974083 -0.012246614 0.03777538 0.027613137 0.014334369 -0.00056843087 0.017953474

conv5.bias f4 [64]
00000000: 449e 4ebd 02ea 8fbd e7e8 d9bc 6fca ee3b
00000010: 3bcd 2cbd 7261 4abd 68d7 2fbd e109 963d
00000020: a5b7 c33d 9092 e3bc 5f59 1abd 12ac 80bd
00000030: 7992 8dbc f89e 10bd 907f 46bb a657 fcbc
00000040: a57b 49bd 7b24 70bd 79f4 2fbc 55cb 26bd
00000050: 5120 38bd f6f9 e0bc e216 24bd e811 b6bd
00000060: 39e9 36bd 58fd febc f024 98bc f237 54bd
00000070: 293f 54bd 815e 31bd dc3e 1cbd 9d9f 1dbd
00000080: 700b 71bd 0876 9cbd 5da1 34bd 505c 4fbd
00000090: 005c 63bd b1f5 58bd 4c85 1abd 903a 18bd
000000a0: 3a41 67bd 10d2 6ebd e0e2 213e f7d5 843d
000000b0: 20cd 29bd b519 35bd 83d2 ebbc d9d1 45bd
000000c0: 7607 1cbd ce99 81bd 3836 50bd 1bf7 31bd
000000d0: 7272 9cbc 59fd 2bbd aa56 0fbd 486b 53bd
000000e0: 0d20 73bd 0cda ffbc 5fa0 2abd 0965 59bd
000000f0: 0e3b 013e 00c0 a2bd b8e5 f73b 35fe c0bd
-0.050443903 -0.07027055 -0.026600314 0.0072873156 -0.04218791 -0.049409337 -0.042930037 0.07326103
0.09556512 -0.027779847 -0.037682887 -0.0628282 -0.017281758 -0.035307854 -0.0030288436 -0.030803513
-0.049190182 -0.05862854 -0.010739439 -0.040721256 -0.044952694 -0.02746294 -0.040060885 -0.08890134
-0.044656012 -0.031126663 -0.0185723 -0.051811166 -0.051818047 -0.043303017 -0.038145885 -0.038482297
-0.0588488 -0.076397 -0.0440992 -0.050625145 -0.05550766 -0.052968685 -0.037724778 -0.037165225
-0.05645869 -0.0583058 0.15809202 0.06486123 -0.041455388 -0.04421397 -0.028786903 -0.04829583
-0.038093053 -0.06328164 -0.050832957 -0.04344855 -0.01909754 -0.041989658 -0.03499476 -0.051615983
-0.059356738 -0.031231903 -0.041656848 -0.05307487 0.12620184 -0.07946777 0.0075652264 -0.09423486

fc1.weight f4 [50, 64]
00000000: 2d7b d0bd ca12 803d ba22 a0bd d276 1fbe
00000010: 63cf 463c 17d0 d8bd 503e afbd 4653 09be
00000020: 84d3 2abd 18d9 9fbb fb51 443d bc25 0abd
00000030: f8e7 573d d4d1 1cbe 2ef3 903d 70b9 4c3d
00000040: 929a 2ebe f8c4 ab3c 9ab6 c8bd ec10 99ba
00000050: 19ed 3abe 67f0 19be 3f44 f7bd fc85 4cbd
00000060: 97ef d6bd 28d7 f93d 38a2 a8bd fa97 69bb
00000070: cc35 f1bd 1695 08be c0d5 a33b e992 f0bd
00000080: 64ed 013d 0040 67bc 60f1 c5bc 1939 c3bd
00000090: 686c f1bd 202a eb3d d7fd 40bc 5ff1 30be
000000a0: 846e a5bd 73b0 3abe b885 15bd 34bc 7dbd
000000b0: c911 323d 51fb 93bc 41fa 79bc ecf4 423d
000000c0: 6fe3 b5bd 60ab ce3d d84c 2e3b 56eb 813d
000000d0: db22 093d 3a12 3dbd 67a6 3bbb 6c0e 88bd
000000e0: f07a a83c 5799 9ebb ac1e 6cbd c465 c1bd
000000f0: d0e8 31bd 06ec febd 7601 c1bd 18c6 f23d
00000100: 20cb 743d 8fe7 523c 811a 703d fecb c53c
00000110: 8c47 b03d 5f26 8e3d 1ae8 6fbd b00f b23c
00000120: bccc b2bd 9e80 83bd 0de9 0bbe 762f 883d
00000130: 5f5c 7d3d 44df d93c 7017 5dbd acbe 9b3d
00000140: ba9e 84bc b0c7 ecbd 8cdd f9bd 80e2 ed3d
00000150: 6a0c 8cbc dcbb cfbd a0f9 41bc 362e 68b9
00000160: 1eea 773c ccd6 62bd 2ec1 dc3d f0cf 00bc
00000170: 5bdd 0dbe 4824 fb3d 508d a6bc 74da 353d
00000180: 92e7 ff3c 148f b4ba a8b5 413d 32bc 1ebd
00000190: f472 d5bd ae1b dabd 1646 913d b338 d3bc
000001a0: 6e62 ab3d b8c5 b13c 1c21 febd 3031 ddbd
000001b0: ce1e 04be 0bdb 8c3d 5afc cabd c42c 023d
000001c0: 848b 9bbd 8111 d5bd dadf 863b 78a2 c33d
000001d0: 0036 6a3d 8ee2 9fbd 3214 e2bd 90b0 25be
000001e0: 0766 29be f4ac 9d3d c0c1 a53b ec59 9fbd
000001f0: 1cf4 c4bd f04c 7bbc ef5c f1bc 4158 3e3d
00000200: 2079 6bbd 402d eebc 9415 09bd 8262 8a3c
00000210: 40cf 693c 2e40 c7bd 7874 fc3d dcb5 423c
00000220: bc17 483c 1405 ffbd e6d8 e4bd 28b6 d53c
00000230: 9260 d1bd c0a5 233c b064 053d 984c fabc
00000240: 8c96 5ebd 4816 94bc 00a7 473d d6ce d13d
00000250: 10a7 6ebd 46ca e7bd 2afb fd3d f882 ebbc
00000260: 0073 c1bd 5857 30bd 327b afbd ecbb bb3d
00000270: f889 94bc b8d1 95bc 8ad2 cebd b45f cb3d
00000280: 22e3 ecbd 787e 2ebd 4cd4 a33d 14ea 923d
00000290: d635 cf3d f650 753d e883 313d e809 32bd
000002a0: 3c45 ba3d 687e 05bd e23b dabd 4ffb 313d
000002b0: 40b9 d63c 506c 9bbc d03e 82bd 8023 71bd
000002c0: 127f 81bd 66f0 babd 9057 24bd ec05 a63d
000002d0: ceee b0bd 409a 19bc de47 8abd 6eb6 ce3d
000002e0: bc81 eabd 20b8 5dbd c0de a33b 20fe 693c
000002f0: ac28 cb3d 9217 9d3d a574 d0bc 2443 ddbd
00000300: c990 38be 705c f4bd 9cf5 03be d934 ee3c
00000310: 4625 9bbd 3e6f 3dbd 26f7 61bc 3849 eabd
00000320: 7fc0 ab3d 6226 94bd 9dc7 8abd aaa9 613c
00000330: 09a3 35be 1f53 463c fc52 b9bd 0cb9 e4bd
00000340: 39ca a9bd adea 773d 71a1 15bd 9e96 fabb
00000350: 290a 40be 76d0 fdba bf09 09be 2051 c93c
00000360: 8090 76bb e072 70bc f026 6fbc ec8d e5bd
00000370: 3654 bbbd c439 3dbe b41e d03d 2029 f9bd
00000380: f0a5 9ebd 7c15 c33d 269c 723d 4eca 03bc
00000390: 4000 fcbd d5f6 9d3d d077 c1bd 24ca 453d
000003a0: fd7d 9ebd 45b9 3c3d 4d26 473d 8f0d 6dbd
000003b0: 4d90 983c 10a0 cdbd b399 90bd 1874 16bd
000003c0: 65a8 2dbb 624c f93d 2a0e abbd 9fa2 fcbd
000003d0: a1e3 663d 49dd bf3b 2eab edbd c4b5 1bbe
000003e0: 5038 e13c 528e 7abc 948f 5a3d 784b 01be
000003f0: c3f3 1a3e 7445 d0bd e6b9 cb3b 00a5 023d
-0.10179744 0.06253584 -0.078191236 -0.1557267 0.012134406 -0.10586565 -0.08556807 -0.13410673
-0.041705623 -0.0048781745 0.047929745 -0.033727393 0.052711457 -0.15314418 0.07077633 0.049981534
-0.17051151 0.020967945 -0.098004535 -0.0011678017 -0.18254508 -0.15033112 -0.12073564 -0.049932465
-0.10494917 0.12199241 -0.08234066 -0.0035643564 -0.11777839 -0.13338122 0.004999846 -0.11746771
0.031720534 -0.01411438 -0.024162948 -0.09532375 -0.11788255 0.11482644 -0.01177927 -0.17279576
-0.0807772 -0.18231373 -0.036504477 -0.061947063 0.043473992 -0.018064173 -0.015257419 0.047596857
-0.0888127 0.10091281 0.0026596095 0.06343715 0.033480506 -0.04615996 -0.002863312 -0.06643376
0.020566434 -0.004840057 -0.05764644 -0.094432384 -0.043434918 -0.12447362 -0.09424107 0.1185419
0.059764028 0.012872591 0.058619026 0.024145123 0.086073965 0.069409125 -0.05857096 0.021735996
-0.08730456 -0.06421016 -0.1366312 0.066496775 0.06185567 0.02659572 -0.05397743 0.07604727
-0.016188968 -0.11561525 -0.1220046 0.11615467 -0.017095763 -0.10143253 -0.0118393 -0.00022142459
0.0151315015 -0.055380628 0.107790336 -0.007862076 -0.13853972 0.122627795 -0.020331055 0.044397786
0.031238351 -0.0013775551 0.04729238 -0.038753696 -0.10422316 -0.10649811 0.07093446 -0.025783872
0.08368383 0.021700725 -0.12408659 -0.108003974 -0.12902376 0.06877717 -0.099114135 0.031780973
-0.0759497 -0.10403729 0.0041160407 0.09552473 0.057180405 -0.07806884 -0.11039008 -0.16180634
-0.16542827 0.07699004 0.005058497 -0.07780823 -0.09616873 -0.015338168 -0.02946326 0.046470884
-0.05748856 -0.029074311 -0.033467844 0.016892675 0.014270604 -0.09729038 0.12326902 0.011884179
0.01221269 -0.124521405 -0.111741826 0.026087835 -0.102234975 0.009988248 0.032566726 -0.0305541
-0.05434279 -0.01807703 0.048743248 0.10244529 -0.058264792 -0.113178775 0.12401421 -0.028748974
-0.09445763 -0.043052047 -0.085684195 0.09166703 -0.018132195 -0.018288478 -0.10098751 0.09930363
-0.1156676 -0.04260108 0.07999477 0.07173553 0.1011769 0.059891663 0.043338686 -0.04346648
0.09095237 -0.032591254 -0.10655953 0.043452557 0.026211381 -0.018972546 -0.06359637 -0.058871746
-0.06323065 -0.091278836 -0.04012257 0.08106598 -0.086392984 -0.009375155 -0.06751989 0.100933895
-0.11450526 -0.054130673 0.005000919 0.0142817795 0.09919867 0.07670511 -0.025446245 -0.10803822
-0.18023981 -0.119316936 -0.12886661 0.029077934 -0.07575469 -0.046248667 -0.013791835 -0.114397466
0.08386325 -0.072338834 -0.067763545 0.013773361 -0.17737974 0.012104779 -0.09049031 -0.111681074
-0.08290524 0.06052654 -0.036530916 -0.0076473495 -0.18753876 -0.0019364494 -0.13382624 0.024574816
-0.003762275 -0.014675826 -0.014596686 -0.1120871 -0.09146921 -0.18479067 0.10162106 -0.12166047
-0.07746494 0.09525582 0.059230946 -0.008043839 -0.12304735 0.07713095 -0.094466805 0.04828848
-0.07738874 0.046075124 0.04862051 -0.05787426 0.018623495 -0.10040295 -0.07060566 -0.03673181
-0.0026498076 0.12172772 -0.08352311 -0.12335705 0.056369428 0.0058552367 -0.116049156 -0.15206057
0.027492672 -0.015292721 0.053359583 -0.12626445 0.1513205 -0.10169497 0.006217229 0.031895638

fc1.bias f4 [50]
00000000: e3e9 56bd 6be4 fcbd fd37 b5bd b4ae 453e
00000010: d26e 823d 3e64 193e 4462 ccbc e07a cdbc
00000020: e1c4 ecbd 6f35 3dbd b6c4 013e 5ea0 4c3e
00000030: 0d15 fabd 4607 e2bb e29a 0b3e 3ee5 443e
00000040: 2a1e 5dbd 2b48 f33d 105c 6bbd 17d4 47bd
00000050: 3f3c 8fbd 3c11 05bd 8fed 03bd b8f6 4a3e
00000060: 1fa2 f7bc ea70 073e 10a7 9cbd e6ce cbbd
00000070: 899a 4d3e 2de6 433e ce01 08be 7236 a13d
00000080: cd59 ffbd 6e20 a7bd 9ed0 113e 0634 6bbd
00000090: ce76 94bd 211a 443e 9609 823e 5a48 3ebd
000000a0: 4af6 b2bd 172c 63bd 769f 27bc e4d7 20be
000000b0: 0d2f 8bbd 441a 9abd b82e a4bc c5c9 8dbd
000000c0: b290 253e cb06 643e
-0.052469146 -0.12348255 -0.088485695 0.19304925 0.063687935 0.14979646 -0.0249492 -0.025083005
-0.11560989 -0.046193536 0.12672696 0.1998305 -0.12211046 -0.0068978397 0.13633302 0.19228074
-0.053983845 0.11878999 -0.057460845 -0.04878625 -0.06993913 -0.03248714 -0.032208975 0.19820678
-0.030228673 0.13226667 -0.07649052 -0.09951572 0.20078482 0.19130774 -0.13281938 0.07871713
-0.124683 -0.08160482 0.14239737 -0.05742266 -0.07249223 0.19150592 0.25397938 -0.04645572
-0.08738382 -0.05546197 -0.01023089 -0.15707356 -0.067960836 -0.07524541 -0.020041808 -0.0692325
0.16168478 0.22268216

fc2.weight f4 [1, 50]
00000000: 6997 14bd bf2b 32bd ece6 bc3c a9ba 0bbe
00000010: 9c1c babd f2ee 8bbd 3cde 0c3d 3415 563d
00000020: 5b0a 453d 541d a23d a604 56bd 3385 13be
00000030: 4a89 92bd f708 48bb 8d6f 68bd d838 8cbd
00000040: 0694 a93b 9227 bbbd 7f13 923d b3e9 bc3d
00000050: dd59 08bc ad12 b8bd 0b00 583d c1e4 82bd
00000060: 1b48 ac3d d30e c9bd f394 563d e291 dabd
00000070: 6d5c 2abe afa1 18be 8d96 f4bc c3da 93bc
00000080: 57ad f93d b10b aebd f11f fabc 43b1 603d
00000090: cca0 0cbd 8add 01be 9e05 2cbe ade8 483d
000000a0: 82df 853d 59b4 173d ec89 313c 27d9 1e3d
000000b0: f5cb 4bbb bce5 9c3d f0b6 953a f328 0c3b
000000c0: 72b0 9fbd eb81 10be
-0.03627721 -0.04349875 0.02305933 -0.13645424 -0.09087488 -0.068326846 0.034391627 0.052266315
0.04810558 0.0791575 -0.052250527 -0.1440628 -0.07155092 -0.0030522922 -0.056747008 -0.068467796
0.0051751165 -0.09138407 0.07132625 0.09224262 -0.008322206 -0.08987937 0.052734416 -0.063912876
0.084121905 -0.098172806 0.052388143 -0.10672356 -0.1663682 -0.14905427 -0.029856944 -0.01804865
0.12191265 -0.08498324 -0.030532809 0.05485655 -0.034333035 -0.12682167 -0.16799018 0.049050022
0.06536771 0.037037227 0.010836106 0.03878131 -0.003109691 0.07661006 0.0011422317 0.0021386712
-0.07797326 -0.1411206
