car/model/autopilot.pt (torch_old, 919887 bytes, 13 tensors)

conv1.weight f4 [24, 3, 5, 5]
0	0xbca9fd41	-0.020750644
1	0xbda265f0	-0.07929599
2	0x3ca745e0	0.020419061
3	0x3e0e338a	0.13886848
4	0x3dbbed4f	0.091761224
5	0x3d0b66b4	0.034033492
6	0xbd49fc86	-0.04931309
7	0x3aa31097	0.0012440857
8	0x3c86b206	0.01644231
9	0x3d907214	0.07053009
10	0xbdbaee03	-0.091274284
11	0xbda4dc1e	-0.080497965
12	0xbd80caa0	-0.06288648
13	0x3de2c56c	0.110728115
14	0xbd7642ee	-0.060122423
15	0xbda51ec6	-0.0806251
16	0xbc44f6c0	-0.01202172
17	0x3ccd1db5	0.02503858
18	0xbd8436a8	-0.06455737
19	0x3dd70181	0.10498334
20	0xbe089cfe	-0.13341138
21	0x3ba98ad0	0.0051740184
22	0x3d6ebf96	0.05828818
23	0x3c242608	0.010018833
24	0xbd2c9d9b	-0.04214249
25	0xbdc422fb	-0.095769845
26	0xbd985612	-0.074382916
27	0xbd936a9c	-0.071980685
28	0x3bea09ba	0.007142273
29	0xbcdb34b6	-0.026758533
30	0x3ca621a9	0.020279722
31	0xbd970116	-0.07373254
32	0x3de715dd	0.11283467
33	0x3da00b3f	0.07814645
34	0x3dac5dc3	0.08416321
35	0xbdabb6e3	-0.08384492
36	0x3da9cbaa	0.08290799
37	0xbd612387	-0.054965522
38	0x3d8c818c	0.068606466
39	0xbcef9d9a	-0.029249955
40	0xbcd444a9	-0.025911646
41	0x3ad5bc8e	0.0016306804
42	0xbc71f777	-0.014768473
43	0x3defea96	0.117146656
44	0xbc00af65	-0.007854317
45	0xbd2a4172	-0.04156632
46	0x3d8b51e7	0.06802731
47	0xbd17b970	-0.03704208
48	0x3d4bb380	0.04973173
49	0x3e083fb4	0.13305551
50	0x3dc8567c	0.097821206
51	0xbbb9b521	-0.005667344
52	0xbd104f93	-0.035232138
53	0xbd922227	-0.0713542
54	0xbcee8ffa	-0.029121388
55	0xbd8ae3d3	-0.06781735
56	0x3bfdeab5	0.0077489265
57	0x3bd2e578	0.006436046
58	0xbdd48d16	-0.103784725
59	0xbd89eb14	-0.06734291
60	0xbd69a5bf	-0.057042833
61	0x3dd2a677	0.10285657
62	0x3db47e76	0.08813183
63	0x3d8d0b9d	0.06886981
64	0xbd40b077	-0.04704329
65	0x3a93662a	0.0011245657
66	0x3acf7766	0.001582843
67	0x3c843d87	0.01614262
68	0xbbaca3e0	-0.005268559
69	0x3d9ecd20	0.07753968
70	0x3b91202c	0.004428884
71	0xbce6aa3e	-0.02815735
72	0xbd29a3c7	-0.041415956
73	0xbc242215	-0.010017891
74	0xbd5d2a6d	-0.05399554
75	0xbd68da3a	-0.056848742
76	0xb997be00	-0.00028942525
77	0x3c2f9ee7	0.010719038
78	0x3da4193e	0.08012627
79	0x3d966785	0.073439635
80	0x3d8d2153	0.06891122
81	0xbd95dacc	-0.07317123
82	0xbd955c4e	-0.07292996
83	0xbda2d504	-0.07950786
84	0xbd9445ab	-0.072398506
85	0xbdbee9a7	-0.093219094
86	0xbdbd3af2	-0.092397586
87	0x3d805132	0.06265487
88	0xbd8f50a9	-0.069978066
89	0xbd65a03f	-0.056061026
90	0xbbf21db4	-0.007388795
91	0x3c86ff0d	0.01647904
92	0x3d806ccf	0.062707536
93	0xbc641a49	-0.0139222825
94	0x3d162b17	0.036662187
95	0x3c871093	0.016487395
96	0x3d87f26a	0.06638034
97	0x3d705cda	0.0586823
98	0x3caf25bb	0.021380296
99	0xbd6bde01	-0.057584766
100	0xbd6d1b47	-0.05788734
101	0x3dc9c944	0.098528415
102	0xbdc342a4	-0.09534195
103	0xbd8e6e30	-0.0695461
104	0x3c797dd5	0.015227755
105	0xbd2dfc29	-0.042476807
106	0x3daeab1a	0.08528729
107	0xbde0da43	-0.1097913
108	0x3d8b655d	0.06806443
109	0xbd83114c	-0.063997835
110	0x3dae5475	0.08512203
111	0xbd8888a0	-0.06666684
112	0xbd9b094e	-0.07570134
113	0xbd3d1eda	-0.046172
114	0xbdf1f89f	-0.11814999
115	0xbd0b08e3	-0.033944022
116	0xbb0715f5	-0.0020612453
117	0xbd8bd7ae	-0.06828247
118	0xbdc8e71c	-0.098097056
119	0x3d551dd1	0.05203039
120	0x3e1bd95b	0.15219633
121	0x3dfe6944	0.124224216
122	0x3d506cdd	0.05088507
123	0x3d7f2f64	0.062301055
124	0xba29599d	-0.0006460192
125	0x3d7eb023	0.062179696
126	0xbcdfadb2	-0.027304504
127	0xbdc4fa99	-0.0961811
128	0x3db3884f	0.08766233
129	0xbd48d2a5	-0.04902901
130	0xbcd9acad	-0.026571596
131	0xbda3f661	-0.080059774
132	0xbd97d5d5	-0.07413832
133	0xbdab0822	-0.083511606
134	0x3d721669	0.059103403
135	0x3cc9369a	0.024562169
136	0x3cb1a294	0.021683969
137	0xbce43701	-0.02785826
138	0x3daec400	0.08533478
139	0x3d884078	0.066529214
140	0xbca64f0e	-0.020301368
141	0x3d56939e	0.052386872
142	0xbda31ef4	-0.07964888
143	0xbd83a443	-0.06427815
144	0x3e041ee3	0.12902407
145	0x3e072929	0.13199295
146	0x3d741acc	0.059595868
147	0x3e05a583	0.13051419
148	0x3d01c1c8	0.031678945
149	0xbbda4731	-0.0066613187
150	0xbdacf358	-0.08444852
151	0xbcb2c087	-0.02182032
152	0xbdba7341	-0.09104014
153	0x3c083aff	0.008314847
154	0xbdcdcf50	-0.10049307
155	0x3de36de9	0.11104948
156	0x3d899442	0.06717731
157	0x3c0d80f2	0.0086367
158	0x3da6e92f	0.08149945
159	0x3dae3c4f	0.08507597
160	0xbbf347c1	-0.007424325
161	0x3e0499df	0.12949322
162	0x3db21b42	0.08696605
163	0xbc037d49	-0.008025476
164	0x3dbcc2a2	0.09216811
165	0xbda2d803	-0.07951357
166	0xbdbf2319	-0.09332866
167	0x3dd2493a	0.10267873
168	0x3dd04c28	0.10170776
169	0xbcb74f25	-0.022376606
170	0x3d8155c0	0.06315184
171	0xbd97d054	-0.07412782
172	0x3d7163dd	0.058933128
173	0x3c0f9b4e	0.008765055
174	0xbcf0d91e	-0.029400405
175	0xbd866c5f	-0.06563639
176	0xbd9df39d	-0.07712481
177	0xbc079c02	-0.008276941
178	0xbd68cf65	-0.05683841
179	0x3dd2f12f	0.10299908
180	0x3b99c532	0.004692697
181	0x3dfba1a0	0.12286687
182	0xbda7cad6	-0.08192985
183	0xbbae74e1	-0.0053239916
184	0x3aa9cf2c	0.0012955419
185	0xbdc2cc31	-0.09511603
186	0x3dfed910	0.12443745
187	0x3da9e33c	0.08295295
188	0xbdcaacb0	-0.09896219
189	0x3dac5c91	0.08416093
190	0xbd8a6fab	-0.0675958
191	0xbcc54c09	-0.024084108
192	0x3d0b9d8f	0.034085806
193	0xbd6fc663	-0.058538806
194	0x3d14fc7d	0.036373604
195	0xbc6a4342	-0.014298262
196	0x3baa3c18	0.005195152
197	0xbd52ebbd	-0.05149435
198	0x3cdc6cbc	0.026907317
199	0xbdd91ec8	-0.10601574
200	0x3da08ae5	0.07838992
201	0x3c881019	0.016609238
202	0xbcb75b86	-0.022382509
203	0x3d39a149	0.04531983
204	0xbd87c20f	-0.066288106
205	0xbcd84fb7	-0.026405198
206	0x3db23d69	0.08703119
207	0x3db9ec73	0.09078302
208	0x3d21da9b	0.03951512
209	0xbd224537	-0.03961679
210	0x3d099c52	0.033596344
211	0xb9afaedd	-0.00033508884
212	0x3d2304d7	0.039799538
213	0x3d7e0e0f	0.062025126
214	0x3c666c29	0.014063873
215	0xbbe57cda	-0.007003409
216	0xbcdac798	-0.026706502
217	0x3bf51d83	0.0074803247
218	0x3d0565ad	0.03256767
219	0xbd9b7cc1	-0.07592154
220	0x3daf2b2e	0.08553158
221	0x3d18f212	0.03734023
222	0xbdcebf12	-0.100950375
223	0x3ddec05a	0.10876532
224	0xbd47420e	-0.04864698
225	0x3db456a9	0.088055916
226	0x3dadf52e	0.0849403
227	0xbd440158	-0.047852844
228	0x3d8d2e40	0.06893587
229	0x3d5aa082	0.05337573
230	0x3d806198	0.062686145
231	0x3d74dcff	0.05978107
232	0xbd937098	-0.0719921
233	0x3d0ff34c	0.035144135
234	0x3d8461d5	0.064639725
235	0x3d89272d	0.06696925
236	0xbdc3305a	-0.09530707
237	0xbcad2d64	-0.021139808
238	0x3e003483	0.12520032
239	0x3ce4da56	0.027936142
240	0x3d96b898	0.07359427
241	0xbd211027	-0.039322045
242	0x3ceee47f	0.02916169
243	0x3e04d645	0.12972362
244	0x3d67b09a	0.056564905
245	0xbd422c6a	-0.047405638
246	0x3dbdc57d	0.092661835
247	0x3cc83454	0.024439014
248	0x3d1b5e74	0.037931874
249	0x3d4941a2	0.049134858
250	0x3bb14342	0.005409629
251	0xbd2b9f9a	-0.041900255
252	0x3cbab3c1	0.022790791
253	0x3de0f407	0.109840445
254	0x3dafc990	0.08583367
255	0x3d84df2b	0.064878784

conv1.bias f4 [24]
0	0xbb815b22	-0.0039476315
1	0xbc9c4697	-0.019076629
2	0xbd8a25bf	-0.06745481
3	0xbdb1cc6c	-0.086815685
4	0x3d6552a0	0.055987
5	0xbdcdc1e6	-0.10046749
6	0x3dc6eb48	0.09712845
7	0xbdbf1e9e	-0.09332012
8	0x3dac5935	0.084154524
9	0xbc8ea06d	-0.017410481
10	0x3ddb333f	0.10703134
11	0xbcca6959	-0.024708437
12	0x3deab6f1	0.114606746
13	0xbd43aef5	-0.047774274
14	0x3dcd3ea4	0.100217134
15	0xbd32d5b2	-0.043660827
16	0xbcf07914	-0.02935461
17	0x3d3d6647	0.046240117
18	0xbd6c13c9	-0.057636056
19	0xbdc91c98	-0.09819907
20	0xbd8f2470	-0.06989372
21	0x3d25aaeb	0.040446203
22	0x3d85108e	0.06497298
23	0xbda7d624	-0.08195141

conv2.weight f4 [32, 24, 5, 5]
0	0x3cc20c48	0.023687497
1	0xbcf4f1d5	-0.02990047
2	0x3bc99cdd	0.0061527328
3	0x3c59ebc0	0.013300836
4	0xbd27759c	-0.040883645
5	0x3cd9fcd5	0.026609818
6	0x3d7df989	0.062005553
7	0x3d2b3f06	0.04180815
8	0xbd4cc281	-0.04999018
9	0xb8939692	-7.037552e-05
10	0xbc521a32	-0.012823628
11	0x3aecf7d5	0.0018079231
12	0x3d33ba51	0.043878857
13	0xbcd99929	-0.02656229
14	0xbc69c607	-0.014268405
15	0xbb0a3b6f	-0.0021092554
16	0x3d8253fa	0.063636735
17	0x3d36e5f6	0.0446529
18	0x3c2fefe0	0.010738343
19	0xbd14e3fe	-0.036350243
20	0x3d41d4e4	0.04732217
21	0x3d5d049e	0.05395948
22	0x3acc0a4e	0.0015567036
23	0x3c6b2007	0.014350898
24	0xbd454a46	-0.048166536
25	0x3c358d1d	0.011081007
26	0x3cb04d8b	0.02152135
27	0xbc56850c	-0.013093244
28	0xbc5f2280	-0.013619065
29	0xbc3bd660	-0.011464685
30	0xbb719907	-0.0036864893
31	0xbcb679b4	-0.02227483
32	0xbc236010	-0.009971634
33	0x3d3d4b3a	0.04621432
34	0xbd2aa074	-0.041656926
35	0xbdc12232	-0.0943035
36	0xba06f244	-0.0005147795
37	0xbdb5388d	-0.08848677
38	0x3c2ab710	0.010419622
39	0x3cbb0a70	0.022832125
40	0xbd6413df	-0.055683013
41	0xbd349e44	-0.044096246
42	0xbd42d3b7	-0.04756519
43	0x3d01e7fe	0.031715386
44	0xbdc91e23	-0.09820201
45	0x3caa85fe	0.020815846
46	0x3d4237ea	0.047416605
47	0x3cf3c9c1	0.02975929
48	0x3d8ce1d5	0.068790115
49	0x3d95f021	0.073211916
50	0xbceaf5e3	-0.028681701
51	0x3cfba49d	0.030718142
52	0x3d2bbc10	0.041927397
53	0x3cb58a4c	0.022160672
54	0x3b9733f5	0.004614348
55	0xbcd28871	-0.025699826
56	0x3cc41c2d	0.023939217
57	0x3d522353	0.05130322
58	0x3d5a0a81	0.053232674
59	0xbc00ae87	-0.007854111
60	0x3d24fed4	0.040282086
61	0xbc14e759	-0.009088361
62	0xbbaeafc9	-0.005331014
63	0x3c8431aa	0.016136963
64	0x3ce8537e	0.028360125
65	0x3d384150	0.04498416
66	0x3d385cba	0.045010306
67	0x3d21e30e	0.039523177
68	0xbb7861cc	-0.0037900088
69	0x3b9d2ce7	0.0047966125
70	0xbc465a46	-0.012106484
71	0xbc90224b	-0.017594477
72	0xbcecdcf4	-0.028913952
73	0x3c9404ea	0.01806875
74	0xbcc078ab	-0.023495039
75	0x3c029e55	0.00797232
76	0xbce04431	-0.027376266
77	0x3cc364ed	0.023851836
78	0xbc8b5fe1	-0.017013492
79	0xba8b3aca	-0.0010622379
80	0xbbea125e	-0.007143303
81	0xbbc53f35	-0.0060194978
82	0xbcc2f698	-0.023799226
83	0x3cc98ba1	0.024602713
84	0xbc658877	-0.014009587
85	0x3c95dda9	0.018294172
86	0x3cffea8e	0.031239774
87	0xbbc9ffd2	-0.0061645294
88	0x3c2bc172	0.010483133
89	0xbbc2b545	-0.005942019
90	0x3d149337	0.036273208
91	0x3d04f5de	0.03246104
92	0xbafae353	-0.0019141234
93	0x3c6f598d	0.014608753
94	0x3be15f2a	0.0068777995
95	0x3c087a4e	0.008329941
96	0x3d019857	0.031639423
97	0xb938335f	-0.00017566745
98	0xbcb65b1a	-0.022260237
99	0x3cdf22ae	0.027238216
100	0xbb947dd7	-0.004531603
101	0xbd0ad31f	-0.033892747
102	0x3c2b44c8	0.01045341
103	0x3ca02c48	0.019552365
104	0x3c2b0772	0.010438787
105	0xbc099e9b	-0.008399631
106	0xbc9b5253	-0.018960154
107	0x3cb5af76	0.022178393
108	0xbd110ab5	-0.0354106
109	0x3c43e8a2	0.011957319
110	0xbc839382	-0.016061548
111	0x3c739fdd	0.014869657
112	0x3c86072a	0.016360838
113	0xbd1cf196	-0.03831633
114	0xbc2e088e	-0.010622157
115	0xbc54ef60	-0.012996525
116	0xbcd27d97	-0.025694652
117	0xbc2fd32d	-0.010731501
118	0xbccfdd55	-0.025374094
119	0x3b42fffe	0.0029754634
120	0xbc1984ef	-0.009370073
121	0xbd02c792	-0.031928606
122	0xbc9f649e	-0.019457158
123	0xbc7cdc4d	-0.015433383
124	0xbd15aaec	-0.036539957
125	0xbbbdc2f2	-0.0057910616
126	0x3d0e2d0e	0.034710936
127	0x3cc84f1f	0.02445179
128	0x3ad0766d	0.0015904434
129	0xbca8850c	-0.020571254
130	0x3b8f1e7c	0.0043676477
131	0x3bdddb5f	0.006770536
132	0x3d06a415	0.032871325
133	0xbaa629ea	-0.0012677286
134	0x3c994322	0.01870877
135	0x3d57af2f	0.052657302
136	0x3d1a65e6	0.037694834
137	0x3d67a792	0.056556292
138	0x3cbeca8c	0.023289941
139	0x3d0c513d	0.034257162
140	0x3cb23955	0.021755854
141	0x3c8eedc2	0.017447356
142	0xbc6aab92	-0.014323132
143	0x3d2a0376	0.041507207
144	0xbcac4ca4	-0.021032639
145	0x3d3ad4ec	0.045613214
146	0x3d4a9c40	0.049465418
147	0x3d26a676	0.040686093
148	0x3cf3aaf5	0.029744605
149	0x3afc9c6d	0.0019272693
150	0xbc804292	-0.015656743
151	0x3cab006d	0.020874226
152	0x3ccd25ea	0.025042493
153	0xbc802140	-0.015640855
154	0xbd0ed57f	-0.034871574
155	0xbcbb8e08	-0.022894874
156	0x3c91d0f0	0.017799824
157	0xbd126837	-0.03574392
158	0x3909339d	0.00013084566
159	0x3cea6727	0.02861364
160	0x3d1391f0	0.03602785
161	0xbce13ca7	-0.027494742
162	0x3bc7d6f6	0.0060986234
163	0x3c6f718b	0.014614473
164	0x3d2732d6	0.040819965
165	0xbce34897	-0.027744574
166	0xbd12d2e6	-0.03584566
167	0x3cf147f8	0.029453263
168	0xbc3ff27a	-0.011715526
169	0x3d055893	0.032555174
170	0xbc5b730f	-0.013394131
171	0x3b5190e8	0.003197724
172	0x3cb2f1cc	0.021843813
173	0xbbdf9ed4	-0.0068243537
174	0x3d0e054d	0.034673024
175	0x3caef745	0.021358142
176	0x3bdb20d0	0.006687261
177	0x3bef11a2	0.007295803
178	0x3d1ca541	0.038243536
179	0x3d217643	0.039419424
180	0x3cc48c01	0.02399254
181	0xbc04675d	-0.008081284
182	0xbc784418	-0.015152954
183	0x3d5e764e	0.054312043
184	0x3ba3ff63	0.0050048097
185	0x3d121cb5	0.03567191
186	0x3c939a3c	0.01801788
187	0x3aa33005	0.0012450224
188	0x3d008584	0.03137733
189	0x3c8eb414	0.017419852
190	0xbc13721b	-0.008999373
191	0x3cc77df3	0.02435205
192	0xbcbeb444	-0.023279317
193	0xbb153f22	-0.0022773226
194	0x3c7e9118	0.015537523
195	0xbccfcefa	-0.025367249
196	0x3c7b0f56	0.015323481
197	0x3caa1e2c	0.02076634
198	0xbc174855	-0.009233554
199	0x3c3a6c2a	0.011378327
200	0xba9800d5	-0.0011596928
201	0xbceb6c0c	-0.028738044
202	0xbd1ef52d	-0.038808037
203	0x3ca6b176	0.020348292
204	0xbcf07756	-0.029353779
205	0x3c720522	0.014771732
206	0xbd261936	-0.040551387
207	0x3ceccbc5	0.028905759
208	0xbc0a5eed	-0.008445484
209	0x3d1b580d	0.03792577
210	0x3bfe1591	0.0077540358
211	0x3ccfe284	0.025376566
212	0x3b0e9f7d	0.0021762543
213	0xbd131b41	-0.035914663
214	0x3c595865	0.013265704
215	0xbd53c82c	-0.05170457
216	0xbd122664	-0.035681143
217	0x3c180067	0.00927744
218	0x3cb90732	0.022586439
219	0x3c81f1d2	0.01586238
220	0xbd01c935	-0.031686027
221	0xbc1387a6	-0.009004509
222	0x3c5edf47	0.013603038
223	0x3c921403	0.017831808
224	0xbc9c97b9	-0.019115316
225	0xbdb4bf1e	-0.08825515
226	0xbcfd048e	-0.03088596
227	0xbb12859f	-0.0022357476
228	0xbc6d6b0b	-0.014490853
229	0x3cf619e6	0.030041646
230	0xbd5bb3cc	-0.053638265
231	0x38d7e42a	0.00010294498
232	0xbc8b67d3	-0.01701728
233	0x3cae04fb	0.02124261
234	0x3c5e41ac	0.013565462
235	0xbc8f7ac7	-0.0175146
236	0x3c00f208	0.007870205
237	0x3c9f4de2	0.019446317
238	0x3b407c70	0.0029371046
239	0xbd4a882d	-0.049446274
240	0xbc8d738f	-0.017267017
241	0x3bf2490c	0.007393962
242	0x3c713dd9	0.014724218
243	0xbcb27bd4	-0.021787561
244	0x3c022e4b	0.007945607
245	0xbcc4e7af	-0.024036257
246	0xbcdb466f	-0.026766984
247	0xbcbb2bcb	-0.02284803
248	0xba97189d	-0.0011527721
249	0x3ca2adf3	0.019858336
250	0xbc697ca4	-0.014250908
251	0xb98ea972	-0.00027210597
252	0xbc97d3f5	-0.018533686
253	0xbce8ef8e	-0.028434541
254	0xbc6287e9	-0.013826349
255	0xbc5fe40b	-0.0136652095

conv2.bias f4 [32]
0	0x3cd44d85	0.02591587
1	0x3c5b48a0	0.013384014
2	0x3c98dc07	0.018659605
3	0xbc2e6ff9	-0.010646814
4	0x3aa6acd6	0.0012716304
5	0xbd10574d	-0.035239507
6	0x3b4da726	0.0031380146
7	0xbccec4f5	-0.0252404
8	0x3d0efa9d	0.034906972
9	0xbc6b5de0	-0.014365643
10	0x3d11ffb5	0.03564425
11	0x3b5b1105	0.0033426892
12	0xbbe00fe0	-0.00683783
13	0x3d39a37a	0.04532192
14	0xbd2dab8a	-0.04239992
15	0x3b3e5647	0.0029043125
16	0x3d6ca6d3	0.057776283
17	0xbca6a659	-0.020342993
18	0xbaccab65	-0.0015615044
19	0x3cad6c8d	0.021169925
20	0xbcb868ba	-0.022510875
21	0xbc7d279a	-0.015451336
22	0xbcedc52f	-0.029024689
23	0xbc75d2bc	-0.015003856
24	0x3cefd314	0.029275455
25	0x3cd3f9d2	0.02587596
26	0xbd05b758	-0.032645553
27	0xbce2b8f8	-0.02767609
28	0xbbba9746	-0.0056943027
29	0x3d18bb64	0.037288085
30	0x3c45e9c8	0.012079664
31	0x3d324614	0.043523863

conv3.weight f4 [64, 32, 5, 5]
0	0x3cf19109	0.029488103
1	0x3d1acae4	0.037791148
2	0x3ccec243	0.025239116
3	0x3d0b94fa	0.034077622
4	0x3d2805fc	0.041021332
5	0x3d065826	0.03279891
6	0x3c947436	0.01812182
7	0xbc358230	-0.011078402
8	0xbcafa3ef	-0.021440474
9	0x3d18d225	0.037309784
10	0x3c493e3d	0.012282905
11	0x3cb4688e	0.022022512
12	0xbcd65f3e	-0.026168462
13	0xbcba261b	-0.022723248
14	0xbc8f9add	-0.0175299
15	0xbcbeca6a	-0.023289878
16	0x3c7dcab3	0.015490222
17	0xbb935eac	-0.0044973698
18	0x3cc0282c	0.023456655
19	0xbc579960	-0.013159126
20	0xbbc720f7	-0.0060769278
21	0xbd00de39	-0.031461928
22	0x3c856bf1	0.016286822
23	0x3bb07306	0.0053848056
24	0x3bb2dffb	0.0054588295
25	0xbc41c5d3	-0.01182695
26	0xbb09ecd6	-0.0021045706
27	0x3c846921	0.01616341
28	0x3c71d82f	0.014761015
29	0x3959e615	0.00020780445
30	0xbc885292	-0.016640935
31	0x3d31dade	0.04342162
32	0x3d3b5035	0.04573079
33	0x3d2d9a19	0.042383287
34	0x3c211384	0.009831313
35	0x3d34d3dd	0.04414736
36	0x3d09ccb0	0.03364247
37	0xbcaf2cd5	-0.021383682
38	0x3ad74971	0.0016425085
39	0xbc201872	-0.009771453
40	0xbca26547	-0.019823683
41	0xbcf2f09c	-0.029655747
42	0x3cb5aae5	0.022176215
43	0x3b8bbca4	0.004264431
44	0xbcd70b01	-0.026250364
45	0xbcee7897	-0.029110236
46	0xbd0146b0	-0.031561553
47	0xbbe5ce2a	-0.007013102
48	0xbb49bae5	-0.0030781564
49	0xbcb7aedb	-0.022422245
50	0xbc502354	-0.012703735
51	0xbc85d372	-0.016336177
52	0xbcbc21a1	-0.022965254
53	0x3d154020	0.036438107
54	0xbbc08dbd	-0.0058762715
55	0x3c4a7c81	0.012358786
56	0x3d179ba7	0.037013676
57	0x3d26f55c	0.040761337
58	0x3ced6510	0.028978854
59	0xbb152e84	-0.0022763321
60	0x3b310ad4	0.002701451
61	0x3bc723f4	0.006077284
62	0xbb2e9821	-0.002664097
63	0xbcd5ce51	-0.026099356
64	0xbc3e40a2	-0.011612089
65	0x3c86f966	0.016476344
66	0x3c05eb7c	0.00817382
67	0x3c944258	0.018098041
68	0xbbd2e738	-0.006436255
69	0xbcb40d8c	-0.021979116
70	0x3c0ddc27	0.008658445
71	0x3caa3268	0.020775989
72	0x3cca8614	0.024722137
73	0xbce4bbc0	-0.027921557
74	0x3cb2f9f4	0.021847703
75	0x3ce3f24e	0.0278255
76	0x3d1a9bef	0.037746366
77	0x3ca0b4e4	0.019617505
78	0xbb2550cd	-0.0025225163
79	0x3cd24c7a	0.025671232
80	0x3bad2ddb	0.0052850074
81	0xbaaf435e	-0.0013371517
82	0xbb4cd817	-0.003125673
83	0xbccad517	-0.024759812
84	0x3cb38ae8	0.021916822
85	0x3ca7ff0f	0.020507364
86	0xbbfbad45	-0.0076805674
87	0x3a9caea5	0.0011953904
88	0x3d0deb5d	0.034648288
89	0xbccb56d0	-0.024821669
90	0xbcf43781	-0.029811623
91	0xbb451fdc	-0.0030078804
92	0xbc0eab68	-0.008707859
93	0xbbc0b9ba	-0.0058815153
94	0xbc498e6c	-0.012302022
95	0xbc5958ff	-0.013265847
96	0xbc9652bd	-0.01835
97	0x3bdaf2cf	0.006681777
98	0x3c1f1c9a	0.009711409
99	0xbc2259ef	-0.009909137
100	0x3ca13f46	0.019683491
101	0x3cac4246	0.021027695
102	0xbc865568	-0.016398147
103	0xb60865ef	-2.0324912e-06
104	0x3c977b52	0.01849142
105	0xbc1364e5	-0.008996223
106	0xbc426038	-0.011863761
107	0xbc7f3c3e	-0.015578328
108	0x3c284118	0.010269426
109	0xbc21d183	-0.009876612
110	0x3ce7e558	0.028307602
111	0x3c9f1898	0.019420907
112	0x3cdb6b94	0.026784696
113	0x3d2854e6	0.04109659
114	0xbbec1f14	-0.0072058532
115	0x3d09e688	0.033667117
116	0xbc5d56a7	-0.013509429
117	0x3ce503a9	0.027955847
118	0x3c7dd88f	0.015493526
119	0xbb004755	-0.0019573767
120	0x3ccfb2e7	0.025353862
121	0x3d1b9ac4	0.037989393
122	0x3d362a78	0.044474095
123	0xbc896660	-0.016772449
124	0xbd0e3d81	-0.034726623
125	0x3d237479	0.039906
126	0x3d0d0820	0.034431577
127	0x3d32de62	0.043669112
128	0x3d2b43f1	0.04181284
129	0x3c1b64f8	0.009484522
130	0xbcda4bf8	-0.026647553
131	0xbce33778	-0.02773641
132	0x3d0cc5a2	0.034368165
133	0x3cb49416	0.02204327
134	0xb905bf45	-0.00012755122
135	0x3d0b437b	0.0339999
136	0xbd0efa41	-0.03490663
137	0xbbd134da	-0.006384474
138	0x3c8d7cae	0.017271366
139	0x3c21c92f	0.009874626
140	0x3c3b56bf	0.011434256
141	0x3cc61f0f	0.024184732
142	0xbcdbb273	-0.02681849
143	0x3bff5325	0.007791894
144	0x3c83f892	0.016109738
145	0x3cd892a7	0.026437117
146	0xbc8d9aa9	-0.017285662
147	0xbcc6f1c7	-0.02428521
148	0xbb5c27d1	-0.0033593068
149	0x3cbbb1f4	0.022912003
150	0xbc1a3ac7	-0.009413428
151	0x3c52d4c2	0.012868108
152	0xbc13c877	-0.0090199625
153	0x3b858c43	0.0040755584
154	0xb94f1919	-0.00019750408
155	0x3cf1603c	0.029464833
156	0x3d017a1c	0.031610593
157	0xbc55f9e0	-0.013060063
158	0xbb85c1d9	-0.0040819463
159	0xbcae7e57	-0.021300478
160	0xbc1549ce	-0.009111835
161	0x3c30713d	0.010769186
162	0x3cbfef18	0.023429438
163	0x3c9e3d95	0.019316474
164	0xbc3c8b22	-0.011507781
165	0xbb1c278a	-0.0023827278
166	0xbbcffea8	-0.006347496
167	0xbc415f12	-0.011802452
168	0x3ca50c91	0.020147594
169	0x3d0005f7	0.03125569
170	0xbcd687a8	-0.026187733
171	0x3cd90500	0.026491642
172	0x3aace2bd	0.0013190132
173	0x3c642a9a	0.013926173
174	0xbc69b43f	-0.014264165
175	0x3bfe6495	0.007763455
176	0x3c744fe0	0.014911622
177	0x3cf7ac1d	0.030233437
178	0x3c4cb0b3	0.0124933
179	0x3d26c535	0.040715415
180	0xbc7b26a1	-0.015329034
181	0xbc86dad0	-0.01646176
182	0x3c66067c	0.014039632
183	0xbc9a2856	-0.018818062
184	0x3d070a96	0.03296908
185	0xbbc75ab6	-0.0060838116
186	0x3b2b7b21	0.002616592
187	0x3d195b1e	0.03744041
188	0xbabfea81	-0.0014642031
189	0x3cef4b9b	0.029210856
190	0x3c42c736	0.011888316
191	0x3cfe1f49	0.031020777
192	0x3ccb810a	0.024841804
193	0xbc1921b2	-0.0093464125
194	0x3b09a277	0.0021001378
195	0xbc4947d1	-0.012285189
196	0x3be8be18	0.007102739
197	0x3cfffc56	0.031248253
198	0xbc936f23	-0.01799733
199	0x3c338d91	0.010959045
200	0x3d0faa44	0.035074487
201	0x3d009333	0.03139038
202	0x3d0baa0a	0.03409771
203	0x3c39b98f	0.0113357445
204	0xbd0a44b6	-0.033756934
205	0xbd2e68d0	-0.042580426
206	0xbbd1166d	-0.006380847
207	0xbb1da33f	-0.00240536
208	0xbcff122d	-0.031136597
209	0xbcba17be	-0.0227164
210	0xbd4763ca	-0.04867915
211	0xbca3acd4	-0.019979872
212	0xbd60f739	-0.05492327
213	0x3c43d704	0.011953119
214	0xbd37a17d	-0.04483174
215	0x3d192227	0.037386086
216	0xbcc2dd6f	-0.023787228
217	0x3ccdcfda	0.025123525
218	0x3c39e47d	0.01134598
219	0x3c46687f	0.012109875
220	0x3d3a3376	0.045459233
221	0x3d4a5f72	0.04940743
222	0x3c9dd0f9	0.019264685
223	0xbbd3614a	-0.0064508067
224	0x3bf98e3d	0.007615833
225	0x3cf55cb8	0.029951438
226	0xbc8201e8	-0.01587005
227	0x3c0db315	0.0086486535
228	0x3b68b6ee	0.0035509425
229	0x3c6b0f2e	0.014346881
230	0x3ce4edb0	0.02794537
231	0xbb3cda9e	-0.002881683
232	0x3ce6fd62	0.028196994
233	0x3d018b5c	0.031627044
234	0xbcc8ccd4	-0.024511732
235	0xbce655d9	-0.028117107
236	0x3c62b0df	0.013836115
237	0xbc9c89da	-0.019108701
238	0xba85807e	-0.0010185388
239	0xbd061c8b	-0.032742064
240	0x3927faa1	0.00016019728
241	0x3c3175ff	0.010831355
242	0xbcfb5709	-0.03068115
243	0xbcd43edd	-0.025908882
244	0xbc3b329f	-0.011425643
245	0xbce6baa7	-0.028165175
246	0xbce7dae4	-0.028302617
247	0x3cc62274	0.02418635
248	0xbba59dec	-0.005054226
249	0xbceeda98	-0.029156968
250	0xbd07cf12	-0.033156462
251	0xbd117304	-0.035510078
252	0x3b4d7aea	0.003135378
253	0xbcf5ce27	-0.030005528
254	0x3cecfa51	0.028927954
255	0xbc781089	-0.015140661

conv3.bias f4 [64]
0	0xbcdb65e7	-0.02678199
1	0xbcc0cefd	-0.0235362
2	0xbca3e995	-0.020008842
3	0x3d04317c	0.032273754
4	0xbcc20053	-0.023681795
5	0xbb860a3a	-0.0040905746
6	0xbc885ada	-0.016644884
7	0x3ccf78e9	0.02532621
8	0xbcab7fd3	-0.020934975
9	0xbcf28984	-0.029606588
10	0x3c4a34b5	0.012341668
11	0x3c493277	0.012280098
12	0xbd28e234	-0.04123135
13	0xbcc5c7e2	-0.024143163
14	0xbb103cde	-0.0022008936
15	0x3be9a9a8	0.0071308203
16	0xbd0c522e	-0.03425806
17	0x3d185d83	0.037198555
18	0x3d1c3c3d	0.038143385
19	0x3b4ff59e	0.0031732093
20	0xbc0a22e9	-0.008431175
21	0x3d09d188	0.03364709
22	0xbc1312d3	-0.008976656
23	0xbcea0406	-0.028566372
24	0x3c0d6490	0.008629933
25	0x3c4cc876	0.0124989655
26	0x3caecb66	0.021337222
27	0x3a9d3ce1	0.0011996293
28	0xbcc7caa5	-0.02438862
29	0x3b0fb39a	0.002192712
30	0x3cfec64a	0.031100411
31	0xbd120c0d	-0.035656024
32	0x3ce70033	0.028198337
33	0xbcca98a9	-0.024730997
34	0x3bc40555	0.005982081
35	0xbd13701f	-0.0359956
36	0x3c9f8736	0.019473653
37	0xbbce3a77	-0.0062935906
38	0xbc8ba3c2	-0.01704586
39	0xbaca19de	-0.0015419086
40	0x3cfe6cb2	0.03105769
41	0x3d17f7f6	0.03710171
42	0x3984dd75	0.00025342
43	0xbbb82eb8	-0.0056208037
44	0x3c539009	0.012912759
45	0xbbe6cecc	-0.007043695
46	0xbc1fb54e	-0.009747816
47	0xbcc6bc83	-0.024259811
48	0x3c305d10	0.010764375
49	0xbc932baa	-0.017965157
50	0xbc4d61b6	-0.012535503
51	0xbb434e37	-0.0029801258
52	0xbc2790b8	-0.010227375
53	0xbc8257a4	-0.015910931
54	0x3cd153a0	0.02555257
55	0x3c08bf40	0.008346379
56	0xbcb78505	-0.022402296
57	0xbd373fad	-0.04473846
58	0xbc0666da	-0.008203233
59	0xbaf25b19	-0.0018490284
60	0x3d1423a4	0.036166802
61	0x3c2b72f7	0.0104644215
62	0xbd2a1583	-0.04152442
63	0x3cd1b5d3	0.025599396

conv4.weight f4 [64, 64, 3, 3]
0	0xbb29cf6b	-0.0025910984
1	0x3d1f1a43	0.038843405
2	0x3d06cff5	0.032913167
3	0x3ce82b8d	0.02834108
4	0xba428e76	-0.0007421741
5	0xbccf9cce	-0.025343325
6	0xbc6f4aaa	-0.014605204
7	0xba281f54	-0.00064133597
8	0xbb3cae49	-0.0028790405
9	0xbc891532	-0.01673374
10	0x3ce85108	0.028358951
11	0x3cc23ced	0.023710692
12	0x3ce435cb	0.027857682
13	0x3cec82c0	0.02887094
14	0x3bc9c27b	0.006157217
15	0x3d1cb11d	0.038254846
16	0x3d1c5c71	0.038174096
17	0x3cd030c5	0.02541388
18	0x3d1d221e	0.038362615
19	0x3c511510	0.012761369
20	0x3cc36f4e	0.023856785
21	0x3cd50cba	0.026007045
22	0x3bc339b5	0.005957807
23	0xbd112597	-0.03543624
24	0xbac0aaa0	-0.0014699288
25	0x3d164251	0.036684338
26	0xbb734bb7	-0.0037123987
27	0xbc0f3bda	-0.008742297
28	0x3be6b3a3	0.0070404573
29	0x3d193edd	0.037413467
30	0x3c846290	0.01616028
31	0xbc2bc7d3	-0.0104846535
32	0x3d4e1075	0.050308663
33	0x3d21b0a6	0.039475106
34	0xbc66ae77	-0.014079682
35	0x3c13a870	0.009012327
36	0xbcc4b18e	-0.024010446
37	0xbcaf37f3	-0.021388983
38	0xbd2af8d4	-0.041741207
39	0xbbedb218	-0.0072538964
40	0xbc37053c	-0.011170682
41	0x3bab30c3	0.0052243187
42	0x3d479c29	0.04873291
43	0x3cda4e4a	0.02664866
44	0xbbfef3cc	-0.0077805277
45	0xbb08efa9	-0.0020894802
46	0xbaee4160	-0.0018177442
47	0xbcd28968	-0.025700286
48	0xbcba7666	-0.022761535
49	0xbc3836b0	-0.011243507
50	0xbbb0c1e5	-0.005394208
51	0xbbf39ef3	-0.0074347197
52	0xbc7b9d22	-0.015357288
53	0x3b12a6f0	0.0022377335
54	0x3c6a421f	0.014297991
55	0xbcdedf73	-0.027206158
56	0xbce054ea	-0.02738424
57	0x3cf2c5dd	0.029635364
58	0xbd06263e	-0.032751314
59	0xbb33b4cd	-0.0027420998
60	0xbb5b9f64	-0.0033511752
61	0x3cbafd70	0.022825927
62	0x3d22aa3c	0.03971313
63	0x3ca109f6	0.01965807
64	0x3bd144f6	0.0063863946
65	0x3d27c71c	0.04096137
66	0xbcad9e1f	-0.021193562
67	0xbc40801c	-0.011749294
68	0xbb6fd0c6	-0.0036592945
69	0x3c92476d	0.017856324
70	0xbcbd0048	-0.023071423
71	0x3ce90976	0.028446894
72	0xbb9cb692	-0.0047825063
73	0x3d2aa517	0.04166135
74	0xb9524c62	-0.00020055615
75	0xbce2a6a5	-0.027667353
76	0x3d4925ab	0.04910819
77	0x3b7047c5	0.0036663872
78	0x3bb187f0	0.0054178163
79	0x3d8d6ab1	0.069051154
80	0x3d88d238	0.06680721
81	0xbcf1e1c7	-0.029526604
82	0xbcc46822	-0.023975436
83	0xbc84b78d	-0.016200805
84	0xbca396ff	-0.019969461
85	0x3c507c6c	0.012724977
86	0xbd022563	-0.031773936
87	0x3d01dc9f	0.03170454
88	0x3c39b375	0.01133429
89	0x3bf6cb42	0.0075315544
90	0x3d37d489	0.044880424
91	0x3ceb5ac5	0.028729806
92	0x3c0524d4	0.008126456
93	0xbbc9cc37	-0.0061583775
94	0x3cbd6709	0.02312042
95	0x3d6b1988	0.057397395
96	0x3c9d7400	0.019220352
97	0xbc834393	-0.016023433
98	0xbc60cf89	-0.013721355
99	0xbcc57dbe	-0.02410781
100	0xbcac9d0c	-0.02107098
101	0xbd16a4af	-0.03677815
102	0xbd3d5a04	-0.046228424
103	0xbd3b8342	-0.045779474
104	0xbd25584f	-0.04036742
105	0x3c26a219	0.010170483
106	0x3ce639f5	0.028103808
107	0xbc86b1c9	-0.016442196
108	0x3cd188f3	0.025577998
109	0xbc0c9c50	-0.00858219
110	0xbd2cdfa3	-0.042205464
111	0xbc1a7f25	-0.009429728
112	0x3bdfb1e0	0.0068266243
113	0xbc97ca41	-0.01852906
114	0x3c506eb1	0.012721703
115	0xbce1e464	-0.027574725
116	0xbcdc39da	-0.026883055
117	0xbbb0bd05	-0.0053936266
118	0xbbf9ba26	-0.0076210676
119	0x3cc79725	0.024364064
120	0x3bcc0d12	0.006227144
121	0xbce2571c	-0.027629428
122	0x3d195858	0.037437767
123	0x3b9beba0	0.0047583133
124	0xbca5fa3d	-0.020260924
125	0x3c2c64d9	0.010522091
126	0xbca1bbfe	-0.019742962
127	0xbd19754a	-0.03746537
128	0x3cb365d1	0.021899136
129	0x3d0865be	0.033300154
130	0xbc0447df	-0.008073776
131	0xbcc4b7a1	-0.024013342
132	0xbd19dd2b	-0.037564438
133	0x3c8b7651	0.017024191
134	0x3c56be38	0.013106875
135	0xbc0dbd60	-0.008651108
136	0xbcbeb63a	-0.023280252
137	0x3982018d	0.00024796688
138	0xbc88eb1d	-0.016713673
139	0x3ce28d26	0.027655195
140	0xbbe2ccd0	-0.006921388
141	0xbccafa04	-0.02477742
142	0x3cac6191	0.021042617
143	0xbc1429cc	-0.009043168
144	0x3c6be7f2	0.014398562
145	0xbcdae658	-0.026721165
146	0x3c8224bf	0.015886663
147	0x3ce2ab2c	0.027669512
148	0x3d0d547a	0.03450439
149	0x3cc55c6d	0.024091924
150	0xbbbd74e4	-0.0057817567
151	0xbd1e2a56	-0.038614593
152	0x3b60e5be	0.0034316625
153	0x3bed16d5	0.007235388
154	0xbb3c2f56	-0.0028714738
155	0xbd091f33	-0.03347702
156	0xbd201011	-0.039077822
157	0xbc8125bd	-0.015765065
158	0x3d32a6f8	0.043616265
159	0x3ae77104	0.0017657583
160	0x3c2ba518	0.010476373
161	0x3d1661f8	0.036714524
162	0xbc24bcdc	-0.010054793
163	0x3a2a9c9d	0.00065083225
164	0xbcaa0b83	-0.020757442
165	0x3d1044b8	0.035221785
166	0x3c8f0a86	0.017461073
167	0xbc97f2b9	-0.018548356
168	0xbb6e6ba6	-0.0036380081
169	0x3d24569d	0.040121663
170	0x3c09da4a	0.008413861
171	0xbbfa60d7	-0.0076409387
172	0x3c8c981d	0.017162377
173	0xbbc119b4	-0.0058929566
174	0x3c423d53	0.011855441
175	0xbcbf1b0d	-0.023328329
176	0xbd262bae	-0.040569
177	0x3c611874	0.01373874
178	0x3b424b49	0.0029646924
179	0xba7b0e01	-0.0009576977
180	0xbcb2ab13	-0.02181009
181	0xbd1fb21e	-0.038988225
182	0xbc1641f4	-0.009170998
183	0x3ccfd890	0.02537182
184	0x3bd6363d	0.0065372274
185	0x3c965fd4	0.018356241
186	0x3c67f009	0.01415635
187	0xbbee2cc0	-0.007268518
188	0xbb81d254	-0.0039618406
189	0x3d01b6ce	0.031668477
190	0xba9ba4c4	-0.0011874666
191	0xbbe964fd	-0.0071226344
192	0xbb7abdfa	-0.0038260208
193	0xbcc7b787	-0.024379505
194	0xbc8ca3cd	-0.01716795
195	0x3c601441	0.013676704
196	0x3b611a66	0.003434801
197	0xbb74c31e	-0.0037347744
198	0xbcd3d527	-0.025858475
199	0xbc95afaf	-0.018272249
200	0xbd207f3c	-0.03918384
201	0x3a67273a	0.0008817796
202	0xbbae2875	-0.0053148814
203	0x3ca6ed46	0.020376813
204	0x3c1be589	0.009515175
205	0xbd0bdd35	-0.034146506
206	0x3d094c14	0.03351982
207	0x3ce7ba41	0.028287055
208	0x3cb73b2c	0.022367083
209	0xbcf0a729	-0.029376583
210	0x3b8a27eb	0.0042161844
211	0x3cf90582	0.030398134
212	0xbccdc697	-0.02511911
213	0xbc7986aa	-0.01522986
214	0xbcc2d386	-0.023782503
215	0xbcb9cbf9	-0.02268027
216	0x3ccc3816	0.024929088
217	0x3d44c436	0.048038684
218	0x3cfe9526	0.031076979
219	0xbd2609e5	-0.04053678
220	0x3bba77df	0.0056905593
221	0x3c4eed1e	0.012629775
222	0x3c8cca50	0.017186314
223	0x3c7e81cc	0.015533876
224	0x3d1757de	0.03694903
225	0x3c8b61ae	0.01701435
226	0xbbb74439	-0.0055928496
227	0x3ce45ae0	0.027875364
228	0xbd3b7166	-0.045762442
229	0xbd461c43	-0.048366796
230	0x3c1452a2	0.009052904
231	0x3cec4b50	0.028844506
232	0xbc4bbbaa	-0.012434879
233	0x39a76b6f	0.00031932766
234	0x3981b5ed	0.00024740343
235	0x3be61e8e	0.0070226854
236	0x3d54d85b	0.051964145
237	0xbcdf8655	-0.027285734
238	0x3d0bb251	0.034105603
239	0xbcdf5799	-0.02726345
240	0x3ce2d841	0.027691009
241	0x3d1a6a10	0.037698805
242	0x3b155cf9	0.0022791012
243	0xb9bb7cd9	-0.00035760438
244	0x3c57eff5	0.013179769
245	0xb9499c65	-0.00019227115
246	0xbcafc803	-0.021457678
247	0x3c43c145	0.0119479345
248	0xbcb7723b	-0.022393337
249	0x3d50591f	0.050866242
250	0x3c4d5b71	0.012534008
251	0x3cf6ee99	0.03014307
252	0xbd194e7a	-0.037428357
253	0xbd28811e	-0.04113876
254	0x3ca7eaab	0.02049764
255	0x3cf86e7c	0.03032612

conv4.bias f4 [64]
0	0xba005bb4	-0.00048964773
1	0xbcd1b8f8	-0.025600895
2	0xbceece8c	-0.029151224
3	0x3d092a91	0.03348786
4	0x3d23cb38	0.039988726
5	0x3d2810e2	0.041031726
6	0x3cffd4b4	0.031229354
7	0x3d1afb7c	0.03783749
8	0xbd0cf689	-0.0344148
9	0xbcc956da	-0.024577547
10	0xbbe24a22	-0.00690581
11	0x3c578975	0.013155331
12	0x3a96e9da	0.0011513785
13	0xbc7e1d8d	-0.015509975
14	0x3c733c1b	0.014845873
15	0xbd1837b0	-0.037162483
16	0xbd1c055b	-0.038091045
17	0x3cf40269	0.029786306
18	0x3d4e38db	0.05034719
19	0xbd2dbf1e	-0.04241859
20	0xbd1ac193	-0.037782263
21	0x3c22b17c	0.009930011
22	0x3b7b03d2	0.0038301838
23	0xbcd18d2e	-0.025580015
24	0xbd1d84de	-0.03845679
25	0x3ce2d7a4	0.027690716
26	0xbd16df9e	-0.03683435
27	0x3d11f347	0.035632398
28	0x3c90865d	0.017642194
29	0xbd08e115	-0.03341778
30	0xbc979f7c	-0.018508665
31	0x3cf74e78	0.030188784
32	0xbd04b4a4	-0.032398835
33	0x3ca6b5bd	0.020350331
34	0xbc8da485	-0.017290363
35	0x3d02099a	0.031747438
36	0x3d0f28f7	0.034951176
37	0xbd168e34	-0.03675671
38	0xbc557a92	-0.013029711
39	0xbd184e08	-0.03718379
40	0xbcb5318f	-0.022118358
41	0xbb875ed9	-0.00413118
42	0x3ad96720	0.001658652
43	0xbd0c7d49	-0.03429917
44	0xbd43dd45	-0.04781844
45	0x3d2c65ba	0.0420892
46	0xbca89bb6	-0.020582061
47	0xbd0bcf8d	-0.034133483
48	0xbc7118b7	-0.014715365
49	0x3b81bd10	0.0039593056
50	0xbcefcc24	-0.029272147
51	0x3c5a8d28	0.013339318
52	0xbd151b48	-0.03640297
53	0xbc9f00ba	-0.019409526
54	0xbcccc7b7	-0.024997575
55	0x3d088e84	0.03333904
56	0x3cd0098f	0.025395183
57	0x3c32553d	0.01088458
58	0x3c37926e	0.011204345
59	0x3c63fbbd	0.013915
60	0xbcfd427f	-0.030915497
61	0x3cc16255	0.023606459
62	0x3cf61d09	0.030043142
63	0x3cf9b39f	0.030481158

conv5.weight f4 [64, 64, 3, 3]
0	0x3d0fbd1a	0.03509245
1	0xbc898b6a	-0.01679011
2	0xba831b8c	-0.0010002716
3	0xbce43bfb	-0.027860632
4	0x3bf7708b	0.007551258
5	0xbc204e8a	-0.00978435
6	0xbd1ee6d6	-0.03879436
7	0x3c8fd626	0.017558169
8	0xbd001c97	-0.031277265
9	0x3b17ffa4	0.0023193145
10	0x3b2b857d	0.0026172095
11	0xbd062747	-0.0327523
12	0x3a2640f1	0.00063420745
13	0x3cb3b7fb	0.021938315
14	0x3cd8fbc6	0.026487242
15	0x3cfd0fbc	0.030891292
16	0x3cb3988d	0.021923328
17	0xb9f5d850	-0.00046891207
18	0xbc624151	-0.013809518
19	0xbcc2a793	-0.023761546
20	0x3ca2b43b	0.019861331
21	0x3c05dc63	0.00817022
22	0x3cc03ab7	0.023465497
23	0xbb031cab	-0.00200061
24	0x3d15beab	0.03655879
25	0x3d370e8a	0.0446916
26	0xbd0d735d	-0.034533847
27	0x3d2f293d	0.042763937
28	0x3bbfe41c	0.00585605
29	0x3b359311	0.0027706067
30	0x3b99a0e7	0.0046883705
31	0x3cdd5abb	0.027020803
32	0x3d1b47cc	0.037910268
33	0xbcfed383	-0.031106716
34	0xbd253aee	-0.040339403
35	0x3c507032	0.012722062
36	0x3d31c6c3	0.043402445
37	0xbc4954f0	-0.012288317
38	0x3c467b67	0.012114382
39	0xbbb98cf7	-0.0056625563
40	0xbbead644	-0.0071666557
41	0xbc9227ec	-0.017841302
42	0x3d22d6f3	0.039755773
43	0x3cdadb11	0.026715787
44	0x3d0b0580	0.033940792
45	0x3d12e9d6	0.035867535
46	0xbce033a4	-0.027368374
47	0xbd2eea31	-0.04270381
48	0x3c8eba82	0.017422918
49	0xbd36b39a	-0.044604875
50	0x3c546cd0	0.012965396
51	0xbd2b782a	-0.041862644
52	0x3ce33dfd	0.02773952
53	0xbca31a9f	-0.019910155
54	0x3cc87ebd	0.024474496
55	0x3c8ff58a	0.017573137
56	0xbc764dbe	-0.015033184
57	0x3d09e336	0.03366395
58	0x3b90fe19	0.004424822
59	0x3cfbe2b4	0.030747749
60	0xbcda8bc5	-0.026677975
61	0xbce82042	-0.028335694
62	0xbbb02d5a	-0.0053765
63	0xbd08d195	-0.033402998
64	0x3bb6115c	0.0055562686
65	0x3d0c53f5	0.034259755
66	0x3ced852e	0.02899417
67	0x3cfff93d	0.031246776
68	0xbc872551	-0.016497286
69	0xbceac696	-0.028659146
70	0xbbda8eea	-0.0066698687
71	0xbca095e6	-0.019602727
72	0x3c83b914	0.016079463
73	0xbd511841	-0.05104852
74	0xbcf8da84	-0.030377634
75	0x3c16e9b6	0.0092109945
76	0x3d033924	0.032036915
77	0xbbc89452	-0.006121197
78	0xbd5c9f15	-0.05386265
79	0xbd12fa09	-0.035882983
80	0x3b67c3e1	0.0035364556
81	0x3cf69904	0.03010226
82	0xbc824326	-0.01590116
83	0x3d27a4d5	0.04092868
84	0xbc8d5b6e	-0.017255511
85	0x3c926957	0.017872496
86	0x3d05385d	0.032524455
87	0xbc3fd0cf	-0.011707499
88	0x3bb5fc4a	0.005553757
89	0xbcb8b599	-0.02254753
90	0x3cafed72	0.021475527
91	0x3aaecd0a	0.0013336253
92	0xbc8c4105	-0.017120847
93	0xbc1a6f55	-0.009425958
94	0xbb50d429	-0.0031864739
95	0xbbd35c3f	-0.0064502056
96	0xbc9f3f2a	-0.019439299
97	0x3b5717ba	0.0032820539
98	0x3c4bb5d4	0.012433488
99	0xbd1f0318	-0.03882131
100	0x3cada83b	0.021198383
101	0x3d213aaa	0.039362587
102	0x3d240631	0.040044967
103	0x3c8a4518	0.01687865
104	0xbd0cd471	-0.034382287
105	0x3bfaa0bf	0.007648557
106	0xbc019edb	-0.007911409
107	0x3ce186a8	0.02753003
108	0xbcb1f2ba	-0.021722186
109	0x3d1ee0a2	0.038788445
110	0x3d1e9691	0.03871781
111	0x3c774a47	0.015093393
112	0xbbb37eca	-0.005477761
113	0xbcabf58c	-0.02099111
114	0xbcdb8da7	-0.026800944
115	0x3d0bbbd4	0.034114674
116	0x3c95c677	0.018283112
117	0x3d188176	0.03723284
118	0xbcb87ab1	-0.022519441
119	0xbc8381c4	-0.016053088
120	0x3ad5bba9	0.0016306537
121	0xbc8a348a	-0.016870756
122	0xbcefc5e3	-0.029269164
123	0x3d111840	0.035423517
124	0xbcad9934	-0.021191217
125	0xbcfc5ae4	-0.030805059
126	0x3ccb3776	0.02480672
127	0xbc91b977	-0.017788632
128	0x3d03860d	0.032110263
129	0x3ce3935a	0.027780224
130	0xbc19f333	-0.009396362
131	0xbcbdbacc	-0.02316036
132	0xbbafe99f	-0.005368426
133	0xbc52f363	-0.012875411
134	0xbbee9700	-0.007281184
135	0x3d09675b	0.033545833
136	0xb9dfb39b	-0.0004266769
137	0xbc920463	-0.017824357
138	0x3c1ecd3e	0.009692488
139	0x3cdabe74	0.026702143
140	0xbb772735	-0.0037712578
141	0x3d08431c	0.033267125
142	0xbc6a9e61	-0.014319987
143	0xbd14185b	-0.03615604
144	0xbcce1db1	-0.025160642
145	0xbbd7bfbd	-0.0065841363
146	0x3d01852d	0.031621147
147	0x3d043476	0.032276593
148	0xbd4260a5	-0.04745545
149	0x3d049457	0.03236803
150	0xbc9cce6d	-0.0191414
151	0xbc4866c6	-0.012231534
152	0xbc8a7522	-0.016901556
153	0x3c008ae2	0.007845612
154	0x3c9f0a1e	0.019414004
155	0x3c53680a	0.012903223
156	0xbd362b8a	-0.044475116
157	0xbc161e81	-0.009162546
158	0xbc406f09	-0.011745223
159	0x3b9b6d9b	0.0047432906
160	0xbc71a5d3	-0.014749008
161	0xbd06a655	-0.03287347
162	0x3d029e3c	0.031889185
163	0xbce8265d	-0.028338606
164	0x3ccad30c	0.024758838
165	0xbb2fa623	-0.0026801906
166	0x3bc063cb	0.0058712712
167	0x3c926524	0.017870493
168	0x3c7e76c9	0.01553125
169	0x3ca6b467	0.020349694
170	0x3cbdd110	0.023170978
171	0xbd28369f	-0.041067716
172	0xbd2b0461	-0.041752223
173	0x3d123990	0.035699427
174	0xba6e4601	-0.0009089411
175	0x3d3da4e5	0.046299834
176	0xbd12fe53	-0.035887074
177	0xbc62e5b2	-0.013848709
178	0xbd2473dd	-0.04014956
179	0x3c791209	0.015202054
180	0xbcf98f0d	-0.03046372
181	0xbc83d406	-0.016092312
182	0x3d153943	0.036431562
183	0x3c8d39ba	0.01723944
184	0xbd30fc27	-0.04320922
185	0x3ce973d2	0.02849761
186	0xbd2fbc2c	-0.042904064
187	0xbcbea556	-0.023272198
188	0x3c83c162	0.016083423
189	0xbccfd77d	-0.025371308
190	0x3d0e02b7	0.034670558
191	0x363fa519	2.8557317e-06
192	0x3cefb9ba	0.029263366
193	0x3d1519ed	0.036401678
194	0xbd1b3903	-0.037896167
195	0x3b87f5f1	0.0041491915
196	0x3bba397b	0.0056831217
197	0xbd3d524c	-0.046221063
198	0x3ccba2c1	0.02485788
199	0x3b6aa584	0.0035804221
200	0x3c9b3b51	0.018949183
201	0xbd2b8d68	-0.041882902
202	0xbcd786cd	-0.026309395
203	0xbcd97206	-0.026543628
204	0xba2a5c71	-0.000649876
205	0x3cea42f0	0.028596371
206	0x3ca57788	0.020198599
207	0x3c65f577	0.014035574
208	0x3cb2f50e	0.021845367
209	0xbd1e316a	-0.038621344
210	0x3aebfa92	0.0018003753
211	0xbce65b83	-0.028119808
212	0x3ce7680d	0.028247857
213	0x3d4b93c7	0.04970148
214	0x3c6dd691	0.014516489
215	0x3a899301	0.0010496081
216	0xbc1ced8e	-0.009578122
217	0x3c03a1eb	0.00803421
218	0xbd21da35	-0.03951474
219	0x3c27a720	0.010232717
220	0x3c93179f	0.0179556
221	0x3d068263	0.03283919
222	0xbd2e22b3	-0.04251356
223	0x3c22c7a0	0.00993529
224	0xbd0b034b	-0.033938687
225	0x3cb46ffd	0.022026056
226	0x3d1abaa8	0.037775666
227	0xbcaf9a13	-0.021435773
228	0x3c9d9d9a	0.01924019
229	0xbd141505	-0.03615286
230	0xbcb43898	-0.021999642
231	0x3cd97981	0.026547195
232	0xbb66b0a2	-0.0035200496
233	0xbd1f995f	-0.038964625
234	0x3d28f0ca	0.04124526
235	0xbcfc790f	-0.030819444
236	0x3ca1ccec	0.019751035
237	0xbd03e045	-0.032196302
238	0xbc0d33ef	-0.008618339
239	0xbcf345ab	-0.029696306
240	0x3c4b072d	0.012391848
241	0xbc29d513	-0.010365742
242	0x3d4f7075	0.050644357
243	0x3c77afbd	0.015117583
244	0x3c364086	0.011123782
245	0x3d0503c4	0.032474294
246	0x3bb1585a	0.0054121437
247	0x3ce4daf4	0.027936436
248	0xbd129b60	-0.03579271
249	0xbcbb2fde	-0.022849973
250	0x3947d5ec	0.00019057811
251	0xbc820963	-0.015873617
252	0x3d0580c3	0.0325935
253	0x3cf93b51	0.030423792
254	0xbc8287b9	-0.015933858
255	0xbd31b462	-0.043384917

conv5.bias f4 [64]
0	0x3d36997b	0.044579964
1	0xbd28b1ec	-0.041185305
2	0xbcb5abe3	-0.022176689
3	0x3c2a9522	0.010411533
4	0xbc014087	-0.00788892
5	0x3b9bb2b5	0.004751528
6	0xbccf5b57	-0.025312109
7	0x3cb739f3	0.0223665
8	0x3cd22c24	0.025655814
9	0x3c8483a9	0.016176062
10	0xbca9fb10	-0.020749599
11	0x3d43a391	0.04776341
12	0x3d250749	0.04029015
13	0x3d4aeec7	0.049544122
14	0x3cd54d85	0.02603794
15	0x3c1b5651	0.009481029
16	0x3d04e1ca	0.03244189
17	0x3d060bf0	0.03272623
18	0xbc818744	-0.01581157
19	0x3d25f271	0.040514413
20	0xbcff8455	-0.03119103
21	0x3c784ac6	0.015154546
22	0x3d3c2c3e	0.04594063
23	0xbd0c02b7	-0.034182277
24	0xbd0a3ce0	-0.03374946
25	0x3c90bd37	0.01766835
26	0xbd18dc0c	-0.037319228
27	0x3abe36c4	0.0014512171
28	0x3d1531bd	0.036424387
29	0xbd3ba809	-0.045814548
30	0xbd144dfd	-0.036207188
31	0xbcc84cd4	-0.024450697
32	0xbbe743b7	-0.007057633
33	0xbc84998f	-0.016186504
34	0x3d3e2712	0.04642398
35	0x3ce07f63	0.027404493
36	0xbb9a75a2	-0.00471373
37	0xbcd9f820	-0.026607573
38	0x3c268aa4	0.01016489
39	0x3d0278c5	0.031853456
40	0xbc830186	-0.015991937
41	0xbc3d3d8d	-0.011550319
42	0x3ce22dd4	0.027609743
43	0x3c526886	0.012842303
44	0xbca90d73	-0.020636296
45	0x3d1bc7e0	0.038032413
46	0x3c971412	0.018442187
47	0xbd323235	-0.043504912
48	0xbcdc6bb5	-0.026906827
49	0xbcb87963	-0.02251882
50	0xbd055659	-0.03255305
51	0xbcede40d	-0.029039407
52	0x3d2778bd	0.04088663
53	0xbbc4cdd9	-0.0060059843
54	0x3d3de398	0.04635963
55	0xbcce8134	-0.025208093
56	0x3d291045	0.04127528
57	0x3cfc184d	0.030773306
58	0x3cc3942a	0.023874361
59	0x3caf2cd0	0.021383673
60	0xbd173f79	-0.036925767
61	0x3c8149e2	0.0157823
62	0x3b35adc2	0.0027721976
63	0xbc9043b7	-0.017610414

fc1.weight f4 [144, 576]
0	0x3ceb09fe	0.028691288
1	0xbc9e0e75	-0.019294003
2	0x3bb67e27	0.0055692378
3	0x3cc085e2	0.02350134
4	0xbd03a265	-0.032137293
5	0xbc5814b4	-0.01318853
6	0xbcc0bc44	-0.023527272
7	0x3c292758	0.010324322
8	0xbcc9c8e7	-0.02463193
9	0xbcb55d6e	-0.022139277
10	0xbcfd5531	-0.030924411
11	0x3d164e36	0.03669568
12	0xbd1462d7	-0.036227074
13	0x3c16ced6	0.009204587
14	0xbbb17117	-0.0054150927
15	0xbcccaa23	-0.024983471
16	0x3d030345	0.03198554
17	0xba7076d7	-0.0009172982
18	0xbba9eaad	-0.0051854462
19	0x3b0e0ac4	0.0021673897
20	0x3d381686	0.044943355
21	0x3c765ed8	0.015037261
22	0x3c94ceab	0.018164953
23	0xbbbf601f	-0.005840316
24	0xbccdeea4	-0.025138207
25	0x3c07e72e	0.008294864
26	0xbcd73fd3	-0.026275551
27	0x3cb94950	0.022617966
28	0xbcf3dbb3	-0.029767847
29	0x3c14e934	0.009088803
30	0x3d8ea707	0.06965452
31	0xbd9d896e	-0.07692228
32	0x3d5a03f7	0.053226437
33	0xbd34f7e6	-0.044181727
34	0x3c9018a6	0.017589878
35	0x3bc45a7c	0.005992232
36	0x38d3e099	0.000101030986
37	0x3c9a7a32	0.018857095
38	0x3ccedcf8	0.02525185
39	0x3c4728bd	0.012155709
40	0x3bc54f3f	0.0060214098
41	0x39b8ca96	0.00035246153
42	0x3d0d2679	0.03446052
43	0xbc9a6c8f	-0.018850593
44	0x3b879413	0.004137525
45	0x3d0edf92	0.034881182
46	0x3d2cba58	0.0421699
47	0x3c99daaa	0.018781025
48	0xbcabca27	-0.020970417
49	0xbc96437a	-0.018342722
50	0x3cb6f849	0.022335188
51	0x3bebafd2	0.0071925903
52	0xbd35b7f8	-0.0443649
53	0x3c36648e	0.011132373
54	0x3c48f697	0.012265823
55	0x3c4ad608	0.012380131
56	0x3d5df4f5	0.054188687
57	0x3ba477c9	0.0050191623
58	0xbcdfe37c	-0.027330153
59	0xbd3fe2f7	-0.04684731
60	0x3c87fc7d	0.016599888
61	0xbcb14399	-0.021638678
62	0x3bef36df	0.0073002423
63	0x3a64ba10	0.0008725235
64	0xbd17e39f	-0.03708231
65	0xbb9215f6	-0.0044581844
66	0x3bfa83cc	0.007645106
67	0xbcf1ccf0	-0.029516667
68	0xbbf9ce1c	-0.007623447
69	0x3cef760c	0.029231094
70	0x3c91c0fb	0.017792216
71	0xbd16bd3c	-0.03680156
72	0xbcb95d28	-0.022627428
73	0xbc7e736f	-0.015530451
74	0xbbcd45cd	-0.0062644244
75	0x3c65cea7	0.014026321
76	0x3ced2ec9	0.028952973
77	0x3cb52bd2	0.022115622
78	0x3bd0f4b8	0.006376829
79	0x3cb4c4aa	0.022066433
80	0x3d1f41bc	0.03888105
81	0x3cc1ea8b	0.02367141
82	0xbca86179	-0.020554291
83	0x3d2450c4	0.040116087
84	0xbc5eed11	-0.013606326
85	0xbd2c5cc5	-0.04208066
86	0xbbebcf7e	-0.007196366
87	0x3c9bb30c	0.019006275
88	0xbc017102	-0.007900478
89	0xbccd66d0	-0.025073439
90	0xba3b8906	-0.0007153902
91	0x3a840824	0.0010073227
92	0xbc6d5f15	-0.014488001
93	0xbc9e9994	-0.019360341
94	0xbc20c4df	-0.009812563
95	0x3c2a765a	0.010404194
96	0x3d2ae5a9	0.041722927
97	0xbb0519d4	-0.0020309584
98	0x3bb46653	0.005505362
99	0xbc816e9d	-0.015799815
100	0xbce19df6	-0.027541142
101	0xbc71cc51	-0.0147581855
102	0x3d48f5f6	0.04906269
103	0xbc962e5a	-0.018332649
104	0x3c6c02a6	0.014404928
105	0x3bb7380e	0.005591399
106	0xbbf9fad5	-0.0076287785
107	0xbcdf6fc5	-0.027274976
108	0x3cfb30e9	0.03066297
109	0x3d0b945a	0.034077026
110	0xbd320eb7	-0.043471064
111	0xbc034b81	-0.008013607
112	0xbc50cc8b	-0.012744079
113	0x3d0d1410	0.03444296
114	0xbc98dc48	-0.018659726
115	0xbc19f041	-0.00939566
116	0x3d2f44d0	0.042790234
117	0x3cfa5394	0.030557431
118	0xbc6bbf35	-0.014388849
119	0x3b17d8aa	0.0023169913
120	0x3d29086a	0.04126779
121	0x3ca3daf8	0.020001873
122	0xbb95bee2	-0.004569874
123	0xbc986669	-0.01860352
124	0x3bc91a27	0.006137151
125	0xbcfd0f58	-0.030891106
126	0xbccdd674	-0.025126673
127	0x3c860ead	0.01636442
128	0xbd1f629c	-0.0389124
129	0x3cf873c6	0.030328643
130	0xbbde78cf	-0.006789304
131	0x3c2a9d80	0.0104135275
132	0xbc52cc5a	-0.012866104
133	0x3d52a642	0.051428087
134	0xbd06509c	-0.03279172
135	0xba769b4d	-0.0009407297
136	0xbc80445e	-0.0156576
137	0xbcba5194	-0.022743978
138	0x3d15de64	0.03658904
139	0x3d14b5aa	0.03630606
140	0xbd81c880	-0.063370705
141	0x3cf1d3ff	0.029520033
142	0xbcc536f0	-0.024074048
143	0xbc8171f3	-0.015801406
144	0xbc22831c	-0.009918954
145	0xbc71ddc8	-0.014762349
146	0x3c87a8b3	0.016559934
147	0x3cdda7ed	0.027057612
148	0x3cd150ed	0.025551284
149	0x3c1a35b2	0.009412216
150	0xbc50c78e	-0.01274289
151	0x3a40f389	0.00073605083
152	0x3d28f195	0.041246016
153	0xbc85f7b9	-0.016353475
154	0x3b3fbb30	0.002925586
155	0xbb6681cd	-0.0035172582
156	0x3c5958d6	0.013265809
157	0x3c51f2c8	0.012814231
158	0xbbca0fa2	-0.0061664144
159	0xbcfa82c2	-0.030579928
160	0xbcc60be6	-0.024175595
161	0x3c3d3f4c	0.011550736
162	0x3c628153	0.013824779
163	0xbd0ecc3f	-0.034862753
164	0xbc3cb7ce	-0.011518432
165	0x3cfc4140	0.030792832
166	0x3cb3df6a	0.021957118
167	0x3d04cd01	0.03242207
168	0xbcf12e2b	-0.02944096
169	0x3d12ded1	0.035857026
170	0x3c9b6a5e	0.018971618
171	0x3d1a605a	0.037689544
172	0x3ce4b60f	0.027918844
173	0xbb9017e9	-0.0043973816
174	0xbb5b894e	-0.0033498588
175	0x3c436475	0.011925806
176	0x3d295da3	0.041349065
177	0x3c0e8f79	0.008701199
178	0xbce7f75e	-0.028316196
179	0xbcb3c30b	-0.02194359
180	0xbd171835	-0.03688832
181	0x3d115604	0.03548242
182	0xbcf5baea	-0.029996354
183	0x3d0146a7	0.03156152
184	0xbd0b2590	-0.03397137
185	0x3cb13138	0.021629915
186	0x3ca7b2ed	0.02047106
187	0x3bfb4bab	0.0076689324
188	0xbab2ceee	-0.0013641992
189	0xbd1da418	-0.03848657
190	0x3c87a5b6	0.01655851
191	0xbc8af8d4	-0.016964354
192	0x3cfb78a8	0.030697182
193	0x3c9b66fc	0.018970005
194	0xbd0775a1	-0.033071164
195	0xbcdb5ee2	-0.026778642
196	0x3d1899c9	0.037256036
197	0x3aecf8a2	0.001807947
198	0xbbc264f5	-0.005932445
199	0x3c45ee87	0.012080795
200	0x3cb88c6e	0.0225279
201	0x3b102636	0.0021995432
202	0x3c97aaa9	0.018513994
203	0xbc25c656	-0.010118088
204	0xbc393912	-0.0113051105
205	0x3d0a339e	0.033740632
206	0x3d1a39f9	0.037652943
207	0x3cca109a	0.02466612
208	0xbc1d03d2	-0.00958343
209	0xbc929ce0	-0.01789707
210	0x3d159629	0.036520157
211	0xbc0df5fc	-0.008664604
212	0xbc7e79c6	-0.015531963
213	0x3cc81733	0.024425125
214	0xbd0eaf81	-0.034835342
215	0xbc8b7bc3	-0.017026788
216	0xbd5b399a	-0.05352173
217	0xbc4b0a9e	-0.012392668
218	0x3bad0f56	0.005281369
219	0xbcf7b6a3	-0.030238455
220	0xbc5904a1	-0.0132457325
221	0xb6d8183f	-6.4401243e-06
222	0xbd2f6ec6	-0.04283025
223	0xbcc2546d	-0.023721898
224	0x3c26d955	0.010183652
225	0xbd0cb82c	-0.034355327
226	0x3cc34548	0.023836747
227	0x3cc68025	0.024231026
228	0xbd0839dd	-0.033258308
229	0xbcdf2c24	-0.027242728
230	0x3cfaed9e	0.030630883
231	0xbc92c7c4	-0.017917521
232	0x3cde259d	0.027117545
233	0xbb45c999	-0.0030179976
234	0xbce94896	-0.028476994
235	0x3d800b13	0.06252112
236	0xbcccd549	-0.025004046
237	0xbd5f91f2	-0.054582544
238	0x3ca52988	0.020161405
239	0xbcccc4a6	-0.024996113
240	0x3c3fdee7	0.011710859
241	0xbd26c9db	-0.040719848
242	0xbc817f16	-0.01580767
243	0x3b79444c	0.0038035093
244	0x3bbf380b	0.0058355383
245	0x3d4911f7	0.0490894
246	0x3d2966b0	0.041357696
247	0xbd4a44c2	-0.04938198
248	0xbe03ed87	-0.12883578
249	0xbd4b8746	-0.049689554
250	0xbcc906b5	-0.024539331
251	0x3d187e32	0.037229724
252	0x3cdcff91	0.026977332
253	0xbccc4531	-0.024935337
254	0xbc5311bb	-0.012882645
255	0x3d1f1855	0.038841564
