car/model/autopilot.pt (torch_old, 548104 bytes, 7 tensors)

conv1.weight f4 [16, 3, 3, 3]
000000 50 9f 32 3d 56 66 c1 bd 05 98 c1 3c 1c 21 f7 bd
       0.043608963 -0.09443347 0.023632059 -0.12066862
000010 6f 20 de 3d a5 17 b9 bc c3 a6 2e be ce 89 88 3d
       0.1084603 -0.022594282 -0.17055802 0.06666909
000020 94 a0 a5 3c ad b5 28 3e 89 f9 1a 3e 41 68 e2 3d
       0.020218171 0.16475554 0.15134253 0.11055041
000030 84 14 62 bd 76 96 97 3d 3f 24 41 bd e7 8e 35 be
       -0.055195346 0.07401745 -0.047153708 -0.17730294
000040 6f 19 3d be 67 12 0a bd 76 7a ad bd 52 5b 8c bc
       -0.18466733 -0.033708956 -0.08470623 -0.017133389
000050 bd b8 31 3e 76 e4 32 3d b6 7b 47 bd 5b 72 f6 3d
       0.17355628 0.04367491 -0.048701964 0.1203353
000060 6a f4 0d be 45 7a fb 3d 30 6d 27 3e e3 73 0b 3e
       -0.13862768 0.122791804 0.16350245 0.13618426
000070 00 3e 65 bd ab 87 34 3e 6d dd f0 bd b2 ec 26 3e
       -0.05596733 0.17629878 -0.117609836 0.1630123
000080 9f 8a 29 bd 94 fd 21 be df 26 50 3d 02 60 12 be
       -0.041391965 -0.15819389 0.05081832 -0.14294437
000090 77 88 87 bd f1 6d aa 3d ca 2c 1e 3e 61 07 b1 bd
       -0.066178255 0.08321751 0.15446773 -0.086439855
0000a0 05 75 ab bd 68 28 5c 3d 29 7b 22 bc 21 0f f7 bd
       -0.08371929 0.053749472 -0.009917059 -0.120634325
0000b0 90 fc d3 bd c2 4f 1b be c0 42 e5 bc 34 c9 fe bd
       -0.10350907 -0.15167144 -0.02798593 -0.1244072
0000c0 c4 0f b4 bb 09 f9 c6 3d 0d 73 b5 bd b5 ae 36 3c
       -0.0054950435 0.097154684 -0.08859835 0.011150052
0000d0 e8 4f 56 3c 8d 49 7a 3d 71 7b 9c 3d b0 f0 9a 3d
       0.013080575 0.0611053 0.07640732 0.07565439
0000e0 33 f7 40 be f7 86 94 bd 2e 5c 16 be 5c cc 18 be
       -0.18844299 -0.07252305 -0.14683601 -0.14921707
0000f0 76 68 00 3e a4 a4 65 bd 3d 4f f3 3b 28 cf 95 bc
       0.12539849 -0.056065217 0.0074252174 -0.018287256
000100 eb cb ba bd 15 1a d9 3d 9b 4b 03 3d 1c e3 2f 3e
       -0.091209255 0.10600678 0.032054525 0.17176479
000110 71 45 c3 3c 92 88 ce bd cc 4d 29 be 1d 50 e6 3d
       0.023836823 -0.100846425 -0.16533583 0.11245749
000120 7b a0 a7 3d 0d ee 92 bc 80 02 0f 3e 6f 8f 0b 3e
       0.08184906 -0.017935777 0.13965797 0.13628934
000130 c5 06 b3 3d a9 ec 2e 3e 37 52 07 3e cb bd 44 be
       0.087415256 0.17082466 0.13214956 -0.19213025
000140 3f 5a d4 bd 74 c0 59 bd 61 3f 3d 3e bf 2e 40 be
       -0.103687756 -0.053162053 0.18481208 -0.18767832
000150 98 94 ff 3d 7f af 28 bd 56 15 c0 3d 68 49 f4 3c
       0.12479514 -0.04118299 0.093790695 0.02982016
000160 cc cc f7 bd 92 88 3e 3d b0 c8 0b 3e cc a2 32 be
       -0.12099609 0.046516962 0.13650775 -0.17444915
000170 6c 67 82 3d 37 9c f8 3c 65 d0 93 3d e9 16 d7 3c
       0.063673824 0.030347927 0.072174825 0.026256042
000180 50 d5 c0 bd 06 fd 96 3d 05 cb 1b be 0e 70 07 bd
       -0.09415686 0.07372479 -0.15214165 -0.033065848
000190 7a ba 01 3e 46 d0 1e be a2 95 1f 3e e8 eb 0d 3e
       0.12668791 -0.15509138 0.15584424 0.13859522
0001a0 f9 e3 2a 3e 0a f3 b5 bd 4e 55 a7 bd 98 52 0d 3e
       0.16688527 -0.08884247 -0.081705675 0.13801038
0001b0 df 13 64 3d db 58 c1 3c 2d 68 d5 3c 48 2a 12 bd
       0.055683013 0.02360194 0.026050651 -0.035684854
0001c0 b4 af ec 3d df fa 06 be 87 47 9e bd 3f 15 be 3d
       0.1155695 -0.13181637 -0.077284865 0.09281396
0001d0 ba 26 03 be 0f 1b 1a bc fa ff 70 bc 0f b1 bc bd
       -0.12807742 -0.009405865 -0.014709467 -0.09213459
0001e0 27 3f f2 bc ba e3 ae bd 28 fb 09 3c a2 93 3c 3e
       -0.029571129 -0.08539529 0.008421697 0.18415692
0001f0 c3 0f a3 3d 2a 48 40 3e 05 1d 40 be 18 3e d4 3d
       0.07961991 0.18777528 -0.1876107 0.10363406
000200 28 4d ca 3d 95 c4 2d 3e 51 dc 30 3e 9c 77 43 bd
       0.09877998 0.16969521 0.17271544 -0.04772149
000210 32 29 cd bd de 58 55 bc dd fd b5 bd ed c5 b4 bd
       -0.10017623 -0.013021676 -0.08886311 -0.08826814
000220 cf 8d 1d be 66 03 1a 3e 59 e6 02 3e 18 6c 09 3b
       -0.15386127 0.15040359 0.12783183 0.002096897
000230 9e 86 f5 bd c7 91 df bd 6b f0 2a 3e 25 5b 1d 3e
       -0.11988567 -0.10916477 0.16693275 0.153668
000240 ce e7 de 3d 3b de a2 bb d5 59 de bd 3c 10 1d bd
       0.10884057 -0.0049703396 -0.10856978 -0.03834556
000250 b9 86 b4 bd dd ae 32 3e 28 d7 5c bd bc 6a 92 3d
       -0.08814759 0.17449518 -0.053916126 0.07149264
000260 c5 b4 3a be 8e bc 06 be 11 a1 14 bd 0c 3a b8 3b
       -0.1823302 -0.13157865 -0.036286417 0.005622154
000270 88 54 a2 3c c9 80 39 be 6a fc 16 bb 9f 75 0a be
       0.019815698 -0.18115534 -0.0023038634 -0.13521431
000280 c5 74 33 be 1d c7 5d bd 68 f2 2d be 31 db 60 3c
       -0.17525013 -0.054144967 -0.16987002 0.013724134
000290 f5 04 8f bd dc 1e e9 3d ba 46 03 be c6 ef c4 3d
       -0.06983367 0.11382839 -0.12819949 0.09616046
0002a0 63 4e 1c be 45 03 35 bd b9 d9 13 be 6c e1 1e bd
       -0.15264277 -0.04419257 -0.14438523 -0.038789198
0002b0 36 72 a3 bd 1a 16 dc 3d 9b f9 07 be 32 0a 39 3e
       -0.079807684 0.10746403 -0.1327881 0.18070295
0002c0 44 88 6d bd 81 80 25 be b7 4a 96 3c 83 36 18 3e
       -0.05799128 -0.16162302 0.018346174 0.14864545
0002d0 a9 c5 14 3e 29 c1 6c 39 68 b8 42 be 4b 16 ff bd
       0.14528526 0.00022578672 -0.19015658 -0.12455424
0002e0 b5 14 60 bd 20 5b 4d 3c e3 80 79 3d d3 9c 15 3d
       -0.054707248 0.012533933 0.06091393 0.036526512
0002f0 63 3d cc 3d b6 9e 2d be 38 79 1e bd 7a ca 8b 3d
       0.09972646 -0.16955075 -0.038689822 0.06825729
000300 08 9d 8f bc dc bb 73 3d 00 06 ed bd ee e2 ba 3d
       -0.017530933 0.05950533 -0.1157341 0.09125315
000310 50 4a c7 bc a0 48 73 bc f9 1c ab bd 54 b1 15 be
       -0.024327427 -0.014848858 -0.083551355 -0.14618427
000320 66 fb 8d bd c8 90 31 bd 65 be 28 be 24 a3 73 3d
       -0.06932716 -0.043350965 -0.1647888 0.059481755
000330 cf 73 8a bd e3 ae df bd b6 6e cf 3d d8 d4 5a bd
       -0.0676037 -0.10922029 0.10128538 -0.05342564
000340 d5 f5 1a 3e 1c b9 6c bd 0e 92 db 3d 64 b1 76 bd
       0.1513284 -0.05779372 0.10721217 -0.060227767
000350 40 ec 35 3c 3d 47 d2 bd d6 e9 0f be 53 4c 20 be
       0.01110369 -0.10267494 -0.14054045 -0.15654115
000360 71 01 22 be d2 32 3e 3e af 30 c5 bd 8d a4 11 3e
       -0.15820862 0.18574074 -0.09628426 0.14222927
000370 a5 5e fd bd 93 c4 ce 3d 9d c9 a8 bd 8a b1 26 be
       -0.12371568 0.10096087 -0.0824158 -0.16278663
000380 6d 3d 0a 3e 9e a4 ba 3d aa 6c 98 3d 20 30 15 be
       0.13499995 0.091134295 0.07442601 -0.1456914
000390 0a 50 35 3e 76 d7 46 bd ef 4f 83 3d 49 9d 3f 3e
       0.17706314 -0.048545323 0.064117305 0.18712343
0003a0 a1 4a 40 3e d0 d5 99 3c 50 82 c1 bd 4a d9 3c bd
       0.18778469 0.018778712 -0.09448683 -0.04610566
0003b0 e4 ad c2 bd 0a d9 3f bd fd 69 25 be b2 a6 29 3b
       -0.09505823 -0.046837844 -0.16153713 0.0025886712
0003c0 46 69 17 3e bb aa 00 be 11 cb 2c be ac b4 09 3d
       0.14786252 -0.12565129 -0.16874339 0.033619568
0003d0 ec da 3c be f0 6b 1a bd a0 d8 38 be d8 0b 97 3c
       -0.18442887 -0.037700593 -0.18051386 0.018438265
0003e0 03 e3 13 3e 74 06 90 bd aa 52 b0 3d ee 83 8a 3d
       0.14442067 -0.07032481 0.08609517 0.06763445
0003f0 db 45 1b be 35 58 e7 bd e3 2e 18 be 22 64 25 be
       -0.15163366 -0.11296121 -0.14861636 -0.16151479

conv1.bias f4 [16]
000000 1b 8d 0c bc d9 84 f4 bd 48 5c 00 be 1e 2d 30 be
       -0.008578564 -0.11939401 -0.12535203 -0.17204711
000010 07 e8 a1 3d 72 bd fe bd 98 3c db 3d 41 39 a1 bd
       0.07905584 -0.124384776 0.10704917 -0.078722484
000020 17 d1 bc 3d d5 06 2e be b1 cb c8 bd 21 96 20 3d
       0.09219568 -0.16994794 -0.09804476 0.039205674
000030 14 6c 52 bd 9a 97 28 bd cd 18 3f be 57 cf ac bd
       -0.051372603 -0.041160204 -0.18661804 -0.084379844

conv2.weight f4 [32, 16, 3, 3]
000000 84 f2 55 bd 60 f1 9d 3c a3 7b f0 ba 09 19 d5 3a
       -0.052233234 0.019280136 -0.0018347393 0.0016258071
000010 27 d7 45 bd e9 f3 a1 bd d4 b3 4a bc 5d d5 55 3d
       -0.04830089 -0.0790785 -0.012371976 0.052205432
000020 c4 4f 91 bd ec e9 63 3d 86 f1 9e bd 8b 03 2a bd
       -0.07095292 0.055643007 -0.07760911 -0.041507285
000030 88 7b 07 bd ab 72 2e 3d e0 89 2e bc ea de 15 bd
       -0.033076793 0.042589825 -0.010652989 -0.03658954
000040 25 f9 8e 3d 98 46 3b ba 62 00 57 bd 3b 80 74 3d
       0.06981114 -0.0007144003 -0.0524906 0.059692603
000050 5d d9 c7 3c 58 0f a8 bd 7e c3 88 3c 83 a6 18 3d
       0.02439564 -0.082060516 0.01669478 0.037268173
000060 f9 98 40 bd cf 14 1d 3d b4 3c 8c bd 4f 98 2b 3d
       -0.047020886 0.038349923 -0.06847516 0.0418933
000070 05 a6 36 bd fa 34 a8 ba 21 31 52 ba 64 e5 72 3d
       -0.044591922 -0.0012833171 -0.0008018185 0.059300795
000080 72 57 9b 3d 7b bc 1a 3d dc 50 e0 3b c6 c5 91 bd
       0.07585038 0.037777405 0.0068455767 -0.071178004
000090 05 8c 08 3d 32 e4 86 3c 35 ae 34 3c 43 ad 8d 3c
       0.033336658 0.016466234 0.011027862 0.017294532
0000a0 cb 12 48 3c 8a 92 18 bd 2b 67 93 3d 50 4f 23 3d
       0.012211512 -0.037249126 0.07197412 0.03987056
0000b0 bd 2b d2 3b 2a 18 4f 3d 0c 37 e2 3c 94 f0 9e 3c
       0.0064139054 0.050560154 0.027614139 0.019401826
0000c0 b4 d7 e6 3c 0a 43 07 3d ba 7a 41 3d 0d 32 f9 3c
       0.028179027 0.033022918 0.04723618 0.030419374
0000d0 c6 8f a3 bb 6f 44 80 bb 88 93 b4 3c a3 bc 4c 3c
       -0.0049915044 -0.003914408 0.022043005 0.012496146
0000e0 55 b2 95 bd bd 9f 74 3d 4b ed f0 3b 27 eb 86 3d
       -0.07309405 0.05972265 0.0073525063 0.065878205
0000f0 06 59 f6 3c 06 8c a8 3d 49 0b d5 bc e3 8c 4a bd
       0.030071747 0.08229832 -0.026006358 -0.049450766
000100 2c 3b e7 bc 4c 03 a2 3c 10 51 e8 bb 8a ff 58 3d
       -0.028226458 0.019776963 -0.0070897415 0.052978076
000110 e9 f3 93 3d 00 81 f8 39 fb c9 1c bd 32 23 4c 3d
       0.072242565 0.0004739836 -0.03827856 0.049838252
000120 c7 44 1f 3d c9 42 df bc 99 5d 94 3d 79 e9 88 3d
       0.03888395 -0.027253525 0.07244415 0.066851564
000130 3e 41 6c bd af 47 a6 3d b6 30 95 bd c9 b0 2e bd
       -0.057679407 0.08119141 -0.072846815 -0.042649064
000140 c7 56 90 bd 80 54 0a 3d 7c 90 b4 bc 00 c3 fc 3a
       -0.070478015 0.03377199 -0.022041552 0.0019284189
000150 ce a5 8a bd cb a0 86 bd 5c 77 8c 3c c0 4c 57 3c
       -0.06769906 -0.065736376 0.017146759 0.013140857
000160 43 ba 4c bd 0c 3c 9b bd 53 ab cc bb 15 24 00 3b
       -0.04998232 -0.075798124 -0.0062460094 0.0019552757
000170 c1 e9 8b 3d 64 df e3 3c 4a 75 ed 3c 62 22 8b bd
       0.068316944 0.027816482 0.028986592 -0.067936674
000180 38 b9 9c bd 56 2e 48 3d dd 48 9e 3d b6 4e 54 bc
       -0.07652515 0.048872314 0.07728741 -0.012958219
000190 f7 fd 83 3d 8b 41 ac bc 03 e8 a3 3b 42 4c 6d 3c
       0.06444924 -0.021027347 0.005002023 0.014483513
0001a0 a3 8b 54 3d 70 e8 67 3d df 58 af bb 9e 7d de 3c
       0.05189098 0.056618154 -0.0053511704 0.027159508
0001b0 e3 94 6f bd 68 1b 37 3c fe f9 a7 bd de ed 78 bd
       -0.0584916 0.011175968 -0.08201979 -0.060773723
0001c0 ca fe 45 3d 86 56 0d bd 38 92 76 3c 8a fe 8a bd
       0.04833869 -0.034506343 0.01504951 -0.06786831
0001d0 a5 e4 a8 3d 62 8e a5 bd 8a 51 ce 3c 23 fd a5 bd
       0.082467355 -0.08083798 0.025185365 -0.081049226
0001e0 08 b4 ff bc f7 3a 6f bd a2 90 18 bd 85 14 a8 bd
       -0.031213775 -0.058405843 -0.037247308 -0.08207039
0001f0 50 fc 48 3d 6f a6 84 3d 20 7b 16 3d 1d 6c 90 bd
       0.04906875 0.06477057 0.036738515 -0.07051871
000200 21 26 5a 3d c1 32 9a bc 3e cf 38 bc 9f 6a 69 bd
       0.05325902 -0.01882303 -0.011279879 -0.056986447
000210 b6 2d 86 3c 50 02 21 bb cd d8 78 3d e0 d7 43 3d
       0.016379219 -0.0024568029 0.060753632 0.047813296
000220 65 40 41 3d 36 02 7b bd 45 e0 0a 3d aa 33 04 3d
       0.047180552 -0.061281405 0.033905286 0.032275833
000230 9c bd 9a bd 4a 0a a0 bd 1c 19 87 bd 59 7c 27 3c
       -0.07555696 -0.078144625 -0.06596586 0.010222518
000240 76 b5 c6 3b 32 c4 0f bd 36 7d 7f 3d de 51 6f bd
       0.0060641123 -0.035099216 0.06237527 -0.058427684
000250 5f 8f 7d 3b fd c0 ee bc c0 cd 2a 3a 31 04 30 3d
       0.0038690192 -0.029144758 0.00065156445 0.042972747
000260 8f 53 90 bd df 02 68 bd 2a 18 45 b9 80 7a 00 bd
       -0.070471875 -0.056643363 -0.00018796386 -0.031366825
000270 81 2b 0f 3d f7 02 0a 3d 61 dc 2b 3d e6 3a 8b bd
       0.034953598 0.033694234 0.041958217 -0.06798343
000280 af 59 77 bd 07 80 a1 bb 96 76 99 3d f1 1b cb bb
       -0.060388263 -0.004928592 0.074933216 -0.0061983992
000290 ec 06 a4 bc ca 6c ea ba ef 92 a2 3c 0a 12 12 bd
       -0.020022832 -0.0017885205 0.019845454 -0.035661735
0002a0 5a fb 9b bc 00 74 26 bd dd 99 7c 3d fe 4e df 3c
       -0.019040752 -0.04063797 0.061670173 0.027259346
0002b0 51 f3 87 bc 10 c9 52 bd 5c 4f 97 bd 4c 79 9f 3d
       -0.016595514 -0.05146128 -0.073881835 0.077868074
0002c0 6c 14 7d bd 4f ca b9 bb 40 20 81 bd a6 50 a2 3c
       -0.061787054 -0.005669869 -0.06304979 0.019813847
0002d0 42 7e a1 bd 29 a8 3e 3d ed 84 12 3d 50 70 b4 bc
       -0.0788541 0.04654709 0.0357713 -0.022026211
0002e0 40 e1 93 bd d3 be 8c bd 6c 17 49 3d 21 89 80 bc
       -0.072206974 -0.06872334 0.049094602 -0.015690388
0002f0 85 fe 8a 3d 50 12 91 3d c3 7a 88 bd a0 89 8d bd
       0.06786827 0.07083571 -0.0666404 -0.069110155
000300 76 61 20 bc 24 fd f6 3c f0 0b 25 3d 5b d2 95 bd
       -0.0097888615 0.030150004 0.040294588 -0.07315513
000310 95 90 9e 3d 80 48 02 3d 90 0a 30 bd 60 de 3b 3d
       0.077424206 0.031807423 -0.042978823 0.04586637
000320 e2 c9 4e 3d 69 1a 7d 3d 90 4f af bc 5b b0 3e bd
       0.0504855 0.061792765 -0.021400243 -0.046554904
000330 0b 29 2b 3c 8c f5 a1 bd f7 d2 90 bd c3 56 54 bd
       0.010446797 -0.079081625 -0.07071488 -0.051840555
000340 02 2e a6 bd 40 de b6 3b 09 60 91 3d ec 1d fd 3c
       -0.08114244 0.0055806935 0.070983954 0.030898057
000350 e0 87 52 bb 2b 6b 7c bd 6e 83 0f bd 84 99 a6 bd
       -0.0032124445 -0.06162564 -0.03503745 -0.081347495
000360 54 df 88 bd 1e e9 28 bd 5e aa 25 3d d7 4e cf 3b
       -0.066832215 -0.041237943 0.040445678 0.006326537
000370 a8 77 39 3d 43 ba 91 bc 67 05 2f 3c 92 ee a8 bd
       0.04528013 -0.017789012 0.01068244 -0.08248629
000380 42 5b 9b 3d f8 7d 10 3c 2c fe 96 bc 90 01 0e 3d
       0.075857654 0.008819096 -0.018431745 0.03466946
000390 f2 b1 96 bd fc 8f f5 3c da c7 8b bd 50 bf 4c bd
       -0.07358159 0.029975884 -0.06825228 -0.049987137
0003a0 ec 48 a8 3c 0c 35 ba 3c bc 39 d4 3c ec fb 3c 3c
       0.020542584 0.022730373 0.025906436 0.011534672
0003b0 29 fd a8 3c 52 fa 64 3b a1 48 91 3d f1 6f 9f bd
       0.020628529 0.0034939242 0.07093931 -0.07785023
0003c0 e3 d5 93 3d 6a 26 6e 3d 29 16 49 3d 13 31 83 3c
       0.0721853 0.058142103 0.0490934 0.016014611
0003d0 3d e2 62 bd 0c 49 64 3d c2 5d 25 3d 5a 51 c8 3c
       -0.05539154 0.055733725 0.040372618 0.024452854
0003e0 23 53 50 bd 67 d9 08 bd 5f 39 84 3b db 53 43 3d
       -0.050860535 -0.033410456 0.0040351595 0.047687393
0003f0 46 70 03 3d 48 57 33 bc 68 b4 16 bd 22 6b 5f 3d
       0.032089494 -0.010946102 -0.036793143 0.05454553

conv2.bias f4 [32]
000000 a3 f2 55 3d 38 0e 9e 3d 8e 8e 97 3d 80 1f 91 3d
       0.05223335 0.07717556 0.07400237 0.07086086
000010 43 ca 8d 3d 58 ff 1f bc 81 d9 19 3d 78 d4 91 3d
       0.06923344 -0.009765469 0.037560944 0.07120603
000020 ce 26 6e 3d a7 c0 23 3d 2c 4c 06 3c 57 f0 4e bd
       0.058142476 0.03997865 0.008196872 -0.050522175
000030 65 b8 12 bd d3 0b ba 3c 5a 01 86 bd 23 f8 6e bd
       -0.035820384 0.022710716 -0.065432265 -0.05834211
000040 b5 e0 35 bc 6e 45 18 3c a9 14 49 3d e0 83 39 3c
       -0.011100938 0.009293897 0.04909197 0.011322945
000050 4c a8 14 ba 65 03 54 bc e9 44 0c bc 76 62 22 3c
       -0.000567083 -0.012940262 -0.008561351 0.00991117
000060 f0 c8 28 bc ee cd ef bc bd b6 84 bd 5c 93 f8 bc
       -0.0103018135 -0.029273 -0.06480167 -0.030343704
000070 fb 84 af 3d 7a 6a 8e 3d 14 6d 80 ba b6 54 88 3d
       0.08570286 0.069539025 -0.0009798133 0.06656782

fc1.weight f4 [256, 512]
000000 be c6 15 3d d2 b1 11 bd 0d d7 32 ba e4 1b 24 3d
       0.03656649 -0.035569973 -0.0006822206 0.04006566
000010 40 94 da bc c1 07 fc 3c 87 42 8a 3c fd 1c a5 3c
       -0.02668202 0.030765416 0.016877426 0.020155424
000020 e7 e1 f5 bc db db e8 bc 01 19 0d 3d dc 99 78 bc
       -0.030014945 -0.028425148 0.034447674 -0.015173402
000030 e9 60 9a 3b 05 d8 0a 3d 01 93 11 bd 8f e7 0d 3d
       0.0047112596 0.03389742 -0.035540584 0.03464466
000040 5d 2b 00 3d f8 29 19 bc 03 a1 14 bc 54 10 93 bb
       0.031291354 -0.009348385 -0.009071591 -0.0044880304
000050 59 e6 b5 3c 4e 50 52 3c 15 dc ef 3a 07 91 0c 3d
       0.022204565 0.012836529 0.0018299842 0.034317996
000060 26 d5 27 bd fb 50 04 3d d9 cc a1 3c 7b e8 11 3d
       -0.04097476 0.03230379 0.019751 0.0356221
000070 a5 eb 09 3d 7e 6e 11 3d 50 3f 0d bd 9d 25 06 3d
       0.033671994 0.035505764 -0.034484208 0.032750715
000080 c9 90 5b bc 3d c1 b2 3c 98 fb cd 3c 87 03 0a bd
       -0.013401219 0.021820659 0.025144383 -0.03369477
000090 d9 75 3d ba ab 39 17 3d b2 e7 62 3c d2 43 2f bd
       -0.00072273385 0.03692023 0.013849186 -0.042789288
0000a0 82 31 09 bc e7 9f 9a 3c 6a a9 2b bd b2 b1 c9 3c
       -0.00837362 0.018875076 -0.041909613 0.024620865
0000b0 97 5a 85 3c 26 a3 16 3d 25 18 5f bb a4 52 27 bd
       0.016278548 0.036776684 -0.003404149 -0.040850297
0000c0 23 4b 33 bd e7 4c 40 bb 8b c0 dd bc e4 83 69 3b
       -0.043772828 -0.0029342712 -0.02706935 0.0035631591
0000d0 d4 f9 9d 3c 06 23 be 3c 57 e0 0d bd 75 fc d8 3c
       0.019284166 0.02321006 -0.034637775 0.026487568
0000e0 35 16 28 3d f7 69 9a bc 7e e9 12 bd e4 e0 01 3d
       0.041036803 -0.018849356 -0.035867207 0.031708613
0000f0 57 dc 24 bc c3 f8 0e bd 7a 54 8c bc d5 58 ef 3b
       -0.010062299 -0.034905206 -0.017130125 0.007304291
000100 ae eb 93 3b e3 a5 ca bc 0e 83 40 3b b9 dd a6 3a
       0.004514179 -0.024737304 0.002937499 0.0012730873
000110 f4 a0 c8 bc 33 4a 5f 3a 10 ae 0a 3d 03 ba 33 3d
       -0.02449081 0.00085178314 0.033857405 0.043878566
000120 c6 5d a6 3c 24 cd 01 3d ea 41 3e bc 8e e7 6a 3c
       0.020308387 0.031689778 -0.011612395 0.0143374335
000130 d5 0d aa ba 69 d2 a8 3c 11 ac cf 3c a0 29 16 3d
       -0.0012974093 0.020608144 0.025350602 0.03666079
000140 d7 ff 23 bd 2b 04 0f bd 0d 72 0e bd db 3b 9c 3c
       -0.04003891 -0.034916084 -0.034776736 0.01907151
000150 c1 01 fa bb 42 a6 2b bd 8f b2 ab 3c 48 d9 39 bb
       -0.0076296036 -0.041906603 0.020959167 -0.002835827
000160 49 d3 da 3c 72 6f b0 bb f6 a7 21 bc ba b2 35 bc
       0.026712077 -0.005384379 -0.009866705 -0.011089975
000170 65 16 57 bc ac ca d8 bc 90 8a 21 3c 14 67 b7 3c
       -0.013127898 -0.026463829 0.009859696 0.022388019
000180 99 d9 ec 3c 63 5e 14 3c 41 b4 44 3c 23 f5 26 3d
       0.028912352 0.009055707 0.0120058665 0.040761124
000190 1f e1 4e 3c 53 44 a4 ba 05 cc 27 3d 1a 89 2e 3d
       0.012626915 -0.0012532569 0.040966053 0.04261122
0001a0 c1 44 e3 3b d0 72 82 bc a2 de 8f 3c ca ad 1d 3c
       0.0069356863 -0.015923887 0.017562214 0.009623954
0001b0 cb 60 ea bc 2c f2 7a bc 17 a3 cb 3c 7e 81 b5 bc
       -0.028610608 -0.015316527 0.02485804 -0.022156473
0001c0 11 2c 17 3d b5 bd 9c 3a 49 d1 f8 3c 91 ee c8 3c
       0.03690726 0.0011958393 0.030373232 0.02452782
0001d0 78 1f 09 3d e5 aa a2 3b bd 25 16 3d 1d 91 fe bb
       0.033477277 0.00496422 0.036657084 -0.0077687637
0001e0 1f 22 0d bd e2 cf 09 bd cc 99 2f bc fd 4c e1 bb
       -0.03445637 -0.033645518 -0.01071782 -0.006875633
0001f0 d1 2f a4 bc 72 0f 11 39 1d 55 14 bd df ab 16 bb
       -0.020042332 0.00013834031 -0.036213983 -0.0022990627
000200 7b 85 3e 3c 4f 14 ce bb 1f 2f bc 3c 7a 6a ce 3c
       0.011628504 -0.006289042 0.022971688 0.025197256
000210 fa 13 05 3d 8c b8 84 bc ea aa aa bc 00 14 b9 3c
       0.032489754 -0.01620128 -0.020833451 0.022592545
000220 ea 26 2d 3d 43 68 6f 3c b6 04 08 3d 80 93 1d 3c
       0.04227344 0.01461226 0.033207618 0.009617686
000230 84 13 24 3d 03 2d bb bc 98 29 6a bc 2b 07 91 3c
       0.040057674 -0.022848612 -0.014292143 0.017703613
000240 31 80 c5 bc 15 c0 5f bb 9c e9 16 3d c5 1a d5 bc
       -0.024108978 -0.003414159 0.03684388 -0.026013741
000250 d1 c4 5c bb 5e 9d 85 3c 9a 6c 09 bd 31 dd a7 bc
       -0.0033686648 0.01631039 -0.033550836 -0.020491214
000260 f1 80 00 3d c7 49 0a 3d 77 e9 15 3d 5d 49 21 bc
       0.031372968 0.033761766 0.036599603 -0.009844151
000270 b6 1e 08 bd ac a4 14 3d 38 78 5b bb 03 4b 34 bc
       -0.033232413 0.036289856 -0.0033488404 -0.011004212
000280 46 3e b4 bc 9b 0e f7 3c 34 24 e5 bc 9d f2 2e bd
       -0.02200235 0.030158332 -0.027971365 -0.042711843
000290 87 a1 18 bd 4f 0b 3c bc 43 00 29 3c 37 12 31 bc
       -0.03726342 -0.011477306 0.010315004 -0.010807565
0002a0 f9 dd a0 3c 55 7f f3 bc 6e 34 e0 3c 14 0f b6 bc
       0.019637095 -0.029723803 0.02736875 -0.022223987
0002b0 9c 13 23 bd fc 8e 19 3d 18 16 b5 3c 2f 65 03 3c
       -0.039813623 0.037489876 0.022105262 0.0080197295
0002c0 09 20 6e bc 0c ac d6 b9 32 aa d1 bc a6 10 11 bc
       -0.014534005 -0.00040945446 -0.02559385 -0.008854067
0002d0 6b d3 20 bc d3 91 a8 bc 1f 1b 0a bd 41 a8 90 3c
       -0.009816031 -0.020577347 -0.03371727 0.017658355
0002e0 dc 8e 8f bc dc 42 8b bb f6 43 0d 3c 7f 8e 78 3b
       -0.017524175 -0.0042499136 0.00862216 0.0037926731
0002f0 a5 61 fb ba 50 7b ff 3c 2f b5 ef 3c 64 a0 dc 3b
       -0.0019178881 0.03118673 0.0292612 0.0067329872
000300 3f 9e 01 bd 1a c8 ea 3a 5e 48 7d 3b 5b 9d e5 3c
       -0.031645056 0.0017912418 0.003864787 0.028029134
000310 06 cf 21 3d c3 3e 0f bd 08 9a ef 3c 0b 6b ec 3c
       0.039504074 -0.034971964 0.029248253 0.028859636
000320 49 7a 93 bc 85 a9 ef 3c e2 4a a3 3a ad 82 2f 3d
       -0.018002646 0.029255638 0.001245823 0.04284923
000330 fc 4d 06 3d c5 0d 80 bc 3a 07 ac 3c 25 59 bc 3c
       0.032789215 -0.015631566 0.02099954 0.022991726
000340 1f 8f 87 bc 03 9b f7 bc a8 6a 8e 3b 08 aa 93 bc
       -0.016547738 -0.030225283 0.0043462105 -0.018025413
000350 07 07 1e bd 02 a6 1e 3d 63 64 9b bc 1e 70 d5 bc
       -0.03858092 0.038732536 -0.018968767 -0.026054438
000360 5a 94 0f 3c 01 9e 77 bb 65 9f 0d 3d a2 c0 20 bd
       0.008763397 -0.0037783387 0.03457584 -0.03924621
000370 00 7c 90 bc 24 b5 0a 3d 6c 2c 95 bc ab 54 80 3c
       -0.017637253 0.033864155 -0.018209659 0.015665373
000380 5d e9 9c 3c 2d 29 1c 3d db 0c bb 3c b0 1a 86 3c
       0.019154245 0.038125206 0.022833278 0.016370147
000390 bc 30 e6 3c aa 26 c7 3b f7 c4 2f 3d cf de c8 3c
       0.02809941 0.006077607 0.04291245 0.024520306
0003a0 d1 7b 1b bc 2c 14 80 bc f8 78 c0 3b 4a 7a 91 bc
       -0.009489969 -0.015634619 0.0058737956 -0.017758507
0003b0 0c 47 dc 3c f8 86 4f 3c e5 32 6e bc fe bf c7 3c
       0.026889347 0.012666456 -0.014538501 0.024383541
0003c0 bf ad 19 3d 59 76 32 3d bd 6f 4d bb 40 a4 6e bc
       0.037519213 0.043569896 -0.0031347119 -0.014565527
0003d0 9e 6d 90 3c 5f 6c b4 b9 e5 1c e4 bc 7c a9 b6 bc
       0.017630395 -0.00034413018 -0.02784581 -0.022297613
0003e0 a6 3e 6c bc 5d 64 5f 3c 9f 9a f7 3c d8 b4 1e bd
       -0.014419233 0.013634768 0.030225096 -0.038746685
0003f0 17 de 27 3d f1 0d a9 39 63 ce 60 3a 45 c0 1e 3d
       0.040983286 0.0003224458 0.0008575676 0.03875758

fc1.bias f4 [256]
000000 d6 90 1b bd e5 b7 97 ba 3c a0 1d bd 70 e7 92 3b
       -0.037979923 -0.0011575191 -0.03848289 0.004483156
000010 f4 05 eb 3b ee 9d fc bc 50 7f a4 3c 1f bf f0 3c
       0.0071723405 -0.030837025 0.020080239 0.029388009
000020 21 b1 88 3c 0c 3c e2 bc 0d bd ca ba 06 25 b5 3c
       0.016686024 -0.027616523 -0.0015467718 0.02211238
000030 81 31 5a 3d 0a 7a ca 3b b9 54 da 3b 54 71 a5 3c
       0.053269867 0.006179099 0.0066629318 0.02019564
000040 b9 b5 87 bc 38 7d 18 bd 86 fe 79 3c 2d 81 fd 3c
       -0.016566144 -0.037228793 0.015258437 0.030945385
000050 7a 69 51 bc 68 a7 ad 3c 21 b5 e8 bc 95 75 ad 3c
       -0.012781495 0.02119799 -0.028406681 0.021174232
000060 68 e7 ab bc 0e 6e 87 bc 50 f0 5a 3d 34 5d e0 3a
       -0.020984367 -0.01653197 0.053451836 0.001711762
000070 5a 27 1a ba a7 e5 8e 3c ac c6 8e bb d5 99 cd 3b
       -0.00058804976 0.017443491 -0.0043571796 0.0062744417
000080 1e f5 30 bd bb 59 96 bc 48 ca 81 3c 30 86 96 bb
       -0.043202512 -0.018353334 0.015843526 -0.004593633
000090 7e 8c 99 bc cd d1 ef 3c 84 ab 01 bd b3 3d 6b ba
       -0.01874375 0.029274845 -0.03165771 -0.00089737325
0000a0 66 a5 b7 3a 88 93 d8 bc 89 72 63 3c 8a 07 59 bc
       0.0014011085 -0.026437536 0.013882288 -0.013246426
0000b0 12 87 15 bd e9 89 24 bd d4 07 2c 3d 4d fa 0c 3d
       -0.036505766 -0.040170584 0.041999653 0.034418393
0000c0 f3 16 91 bc ac 62 f7 bc 0d d0 21 bc 25 7d 93 bc
       -0.017711138 -0.030198418 -0.009876263 -0.01800401
0000d0 af db bd bb 77 83 02 3b 92 c4 3b bc e5 4d b9 bc
       -0.0057940106 0.0019914785 -0.01146044 -0.02262015
0000e0 45 3b cc 3c 74 7d 5a bc da c4 e5 bc b4 69 0b bd
       0.024930606 -0.013335574 -0.028047968 -0.034036353
0000f0 0b eb 70 bc 17 c3 2e 3d 52 ce 5d bc 24 4f 02 3d
       -0.014704476 0.04266652 -0.01353796 0.031813756
000100 31 ca b1 3c 7c 0a 09 bd 7c d9 cf ba 95 06 16 bd
       0.021702858 -0.033457264 -0.0015857662 -0.03662737
000110 e8 b4 13 3d bb 5e 0e 3b e8 16 4a 3d 18 7b 81 bc
       0.036061198 0.0021723944 0.04933825 -0.015805766
000120 54 cb 40 3d d4 fc d0 3c 71 6f 2f 3d 03 a5 94 bc
       0.04706891 0.025511183 0.04283089 -0.01814509
000130 05 49 76 bc f3 55 bf bc 82 0b 9d 3c 84 0a 15 3c
       -0.015032058 -0.023356413 0.019170526 0.009096745
000140 bb 2e 4b 3c 56 8f 2b 3d 00 9d 7a 3d ea 9e ae 3c
       0.012401278 0.041884743 0.061184883 0.02131601
000150 a1 c1 c0 bc 13 c5 7e bc 9d 7a 03 bd ef 5e 37 3d
       -0.02352983 -0.015549916 -0.032099355 0.04476827
000160 ee f0 8b 3c b3 d2 14 3d a8 3e 5e 3c 24 34 bf ba
       0.017082658 0.03633375 0.013564743 -0.0014587683
000170 f7 0c 5a 3d e1 91 5c 3d 6d 5f e4 3c fe da 61 3d
       0.05323502 0.05385006 0.027877534 0.055140488
000180 10 ce 24 bd 15 d8 18 3d fd d2 dc 3c 77 50 41 3d
       -0.04023558 0.037315447 0.026956076 0.047195878
000190 f6 c4 c8 3a f7 98 c2 3c d9 4f 31 3d 9a 81 25 bd
       0.0015317488 0.02375458 0.04328904 -0.0404068
0001a0 58 fc e4 bc 45 f0 c5 bc da 5d 5f bc 45 d5 0d 3c
       -0.027952358 -0.024162421 -0.013633216 0.008656804
0001b0 09 e9 1d bd 5a 4c 9e ba 8a c4 f2 3c 75 e9 1b bc
       -0.038552318 -0.0012077198 0.029634733 -0.00951611
0001c0 84 66 12 bc 62 f4 d7 bc f6 ca 85 3c 6f d5 8d 3d
       -0.008935574 -0.026361648 0.01633213 0.06925475
0001d0 18 0c 21 bd 97 43 bb 3c 84 2a 7f 3c e1 ad 55 bc
       -0.039318174 0.022859378 0.015574101 -0.013041944
0001e0 64 f7 87 bc 0c d5 bf bc 8f 8d 13 bd 38 92 91 3c
       -0.016597457 -0.023417018 -0.036023673 0.017769918
0001f0 dc b5 00 3d 7b 03 8b 3c 80 9a 23 3c 01 c9 b0 3c
       0.031423435 0.016969433 0.009985566 0.021580221
000200 7a c6 c4 bc 09 a1 06 3d 46 81 a2 bc 8c 88 70 3d
       -0.024020422 0.03286842 -0.019837033 0.05872397
000210 3c b7 7a bc 73 50 bc 3a 37 82 3c bc fe 42 c5 3b
       -0.015302476 0.0014367237 -0.011505655 0.006019949
000220 14 d2 34 3c f5 d4 f7 bc 98 29 32 3d b8 f8 8b bc
       0.011036415 -0.030252913 0.0434967 -0.017086372
000230 f8 a7 80 3c e0 25 1f bd 5b bc be bc bb 2c 87 ba
       0.015705094 -0.03885448 -0.023283174 -0.0010313013
000240 6b 65 38 3d d5 9c 31 bd d3 29 32 3c 63 7f 16 3c
       0.045018595 -0.043362457 0.0108742295 0.009185645
000250 e5 bf 30 bd 0a 8c 04 3d b5 b3 1a bd d6 c1 54 bb
       -0.043151755 0.032360114 -0.03776904 -0.0032464168
000260 71 8c 1b 3b 9d 68 c0 ba 8f cf 1f 3d 70 8b fc bc
       0.0023734833 -0.0014679615 0.039016303 -0.030828208
000270 35 f3 30 bd 38 af 1b bd 06 98 fb bc c6 48 2a bd
       -0.04320069 -0.0380089 -0.030712139 -0.04157331
000280 fd 61 e0 3c 58 3f 14 3c d5 44 f3 bc 51 e4 aa bc
       0.027390474 0.009048305 -0.029695908 -0.020860823
000290 30 a4 a5 bb 1b 43 44 3d 43 e8 2c bb e0 58 43 3c
       -0.005054973 0.04791556 -0.0026383556 0.011923045
0002a0 01 b5 24 bd 9b a6 59 ba 1e 27 2b bd b8 0c 38 3d
       -0.04021168 -0.0008302719 -0.041785352 0.044934005
0002b0 5d f0 1a bd 49 ce 01 3d cb 26 9c ba 8c d3 2b bd
       -0.037826885 0.03169087 -0.0011913417 -0.041949794
0002c0 2d a6 f8 3b fc a5 13 bc 95 f1 64 bc 80 64 f1 3c
       0.007588169 -0.009011742 -0.013973613 0.029466867
0002d0 5a a4 39 ba bc a6 ec 39 3f 68 ad bc bc 41 aa bc
       -0.000708168 0.00045137655 -0.021167872 -0.020783298
0002e0 5c 68 15 bd 8f 90 1b bd 8e 20 a5 3c c5 b5 bc bc
       -0.036476478 -0.03797966 0.020157125 -0.023035893
0002f0 76 96 c8 3b a0 a6 1f 3d bb b6 1d 3d 08 e0 0e 3c
       0.006121452 0.038977265 0.038504343 0.008720405
000300 d3 43 aa 3c 67 74 98 bc 04 67 85 3d 3a 9b 06 bd
       0.020784294 -0.018610192 0.06513789 -0.03286288
000310 8f 6a b1 ba 72 51 13 3d ce 3a 0c 3d 24 c8 1b bd
       -0.0013535785 0.035966344 0.034235768 -0.038032666
000320 ff c5 66 3c 1b 48 46 bc 30 52 50 bc f9 35 d0 3c
       0.014085292 -0.012102152 -0.0127149075 0.025416361
000330 5b 14 8a 3d 8a fc 31 3d ec 23 18 3c 98 8b f1 bc
       0.06742164 0.04345373 0.009285908 -0.029485509
000340 8d 5d 1c 3c 67 73 a7 bb 74 8c 4b bc 3f 75 b6 bc
       0.009543789 -0.0051101926 -0.012423623 -0.022272704
000350 a9 7d 18 bd 73 58 6a 3d 5e fc 0b bd a5 3e 78 3c
       -0.037229214 0.057213258 -0.034176223 0.015151654
000360 de 62 18 bd ef 80 07 bd b7 3e 92 bc 20 41 c7 3c
       -0.037203662 -0.033081945 -0.01785217 0.024323046
000370 27 2c a5 bc 7b 67 1e 3d 3a 2d 36 3d 6e 9b fd 3b
       -0.020162655 0.038672905 0.044476725 0.007739476
000380 78 e7 87 bc f6 63 2e bd 9c 10 85 3d fe b7 48 ba
       -0.016589865 -0.0425758 0.064973086 -0.00076568115
000390 f0 41 0b bd 67 3f 39 bc fd e8 6e 3d 34 cc 67 bc
       -0.03399843 -0.01130662 0.058327664 -0.014147807
0003a0 61 05 85 3c e4 43 36 3d 25 6a dc bc 1c 30 cc b9
       0.016237916 0.04449834 -0.026906082 -0.00038945756
0003b0 a7 83 14 bd fc 33 c9 bb 48 ca cd 3c a2 73 4d 3a
       -0.036258366 -0.00614023 0.02512087 0.000783736
0003c0 a4 46 9e 3a 27 31 45 3c 11 d4 18 bd 2c 2f b0 3c
       0.0012075496 0.012035645 -0.037311617 0.021506868
0003d0 3e cd 95 3c 3d e7 60 3d c4 c3 d8 bc 17 24 1a bd
       0.018286344 0.054908026 -0.026460536 -0.037632074
0003e0 dc 9b 84 3d f5 4a ea 3b 39 90 82 bc c0 10 89 3d
       0.0647504 0.007150049 -0.015937911 0.06692648
0003f0 c2 a5 67 3c 64 02 9d 3c 4c c5 b8 3c c1 dc 82 bc
       0.014138641 0.019166179 0.022555016 -0.015974404

fc2.weight f4 [1, 256]
000000 5b 21 80 3c ec 0b 57 3c 1a b0 01 bd 0c fb 11 3d
       0.015640905 0.013125401 -0.031662084 0.035639808
000010 68 cb 23 3d 6e 50 10 3d 54 59 66 bc 41 f4 49 3c
       0.039988905 0.035232954 -0.014059383 0.012326301
000020 3e 5d f5 3b 8d 12 ad 3c b1 25 18 3d ad 86 68 bd
       0.007487922 0.02112701 0.03714532 -0.05676906
000030 83 ee 88 bd e9 8f a1 3c 59 6f 17 3c d6 5a 64 bc
       -0.066861175 0.019721942 0.009242856 -0.013937673
000040 43 b3 66 3d a8 89 3a 3d a8 74 af 3c db b1 31 bc
       0.0563233 0.045541435 0.02141793 -0.010845627
000050 d8 e3 54 3c 7f c7 e8 3b c2 50 1c 3d 11 b0 63 bd
       0.012993775 0.00710386 0.038162954 -0.055587832
000060 cf de aa bc f8 8b e2 3b 3d 40 58 bd 6c 9c 4b 3d
       -0.020858197 0.006913658 -0.052795637 0.049709722
000070 f4 c0 66 3d f2 c0 7b bc 2a d9 2a bd 04 f7 08 bc
       0.05633636 -0.015365826 -0.04171101 -0.008359674
000080 c2 e3 6c bc e2 96 d5 bc 78 68 3c bc ca fe 02 bd
       -0.014458599 -0.026072923 -0.011499517 -0.031981267
000090 00 10 0b bc b2 62 66 bc 9d b5 e3 bc d3 a2 1d 3d
       -0.008487701 -0.014061617 -0.02779656 0.03848536
0000a0 c7 75 b9 3b 5f ed 6e 3c c4 c1 e5 3c f8 67 d3 bc
       0.005659792 0.014582961 0.028046496 -0.025806412
0000b0 58 79 7d 3c 14 84 8f 3c ec a6 a1 bc fc a8 6b bd
       0.015470825 0.017519034 -0.019732915 -0.057534203
0000c0 1f 2c be bc d1 57 76 3b 50 de 69 3d 70 b7 6e 3c
       -0.023214398 0.0037588964 0.05709678 0.014570102
0000d0 22 73 6f bd ae 74 44 3d 90 72 6c 3d f8 6b db bc
       -0.05845941 0.047962837 0.057726443 -0.026784882
0000e0 56 2f 33 bb 31 85 a9 3c d2 0d 23 bd 8e bc 34 bc
       -0.0027341447 0.020693393 -0.039808102 -0.011031283
0000f0 06 94 0e bd a6 ee 6c bd 45 b9 53 bc c3 9c fc bb
       -0.034809135 -0.05784478 -0.01292259 -0.007709117
000100 66 c8 83 bd 7c ae 4b bb 4c 83 59 bb dc be 45 bd
       -0.06434707 -0.0031079343 -0.0033189831 -0.04827772
000110 1f 11 51 bd ad 71 44 3d ef a0 54 bd 60 2c fc bc
       -0.05104172 0.047959972 -0.05191129 -0.030782878
000120 2d e0 e0 bc dd f0 65 bc 3d da 5c bd ed 00 19 3d
       -0.027450645 -0.014034477 -0.053919066 0.0373544
000130 1d a3 cc bc 6e 05 0a 3d 43 86 0f bc 19 d6 03 bc
       -0.024980122 0.033696584 -0.008760038 -0.00804665
000140 75 34 2d 3d 61 f5 cd bb 6b 54 87 bd 9f c6 b4 3c
       0.042286355 -0.006285355 -0.06607898 0.022067366
000150 72 8b 45 3d 6d 1a 4f bc 67 05 23 3d 65 4c 6e bd
       0.04822869 -0.012640578 0.039800074 -0.058178324
000160 d1 ea a9 3c fb 85 bd bb b5 78 a1 3c d6 c6 3d 3d
       0.020741852 -0.005783794 0.019710878 0.046332203
000170 40 8b 94 bd ba 46 30 bd 47 f9 2b bc 38 85 17 bd
       -0.07253122 -0.0430362 -0.010496444 -0.03699228
000180 93 06 0b 3d 1e c1 61 bd e2 b4 15 ba ab 0d 58 bd
       0.033941817 -0.05511581 -0.00057108526 -0.05274741
000190 ec a0 20 3d 16 bd 0a bd 93 e9 71 bc f5 e8 7c 3c
       0.039215967 -0.033871733 -0.014765161 0.015436401
0001a0 d0 b1 04 bb 67 6b 20 bc 71 46 0d 3d 99 d2 93 3c
       -0.0020247586 -0.009791232 0.034491006 0.018044757
0001b0 75 85 c0 bc 87 28 ba 3c 73 bd 25 bd 7a 80 71 3d
       -0.023501137 0.022724403 -0.040463876 0.058960415
0001c0 06 aa 32 3c ab c4 6f 3c 69 f5 52 3c fd 10 73 bd
       0.010904795 0.014634292 0.012875893 -0.059342373
0001d0 e1 e7 43 3d 72 38 9e bc 97 98 c1 bb f6 cc d3 3c
       0.04782856 -0.019314025 -0.0059080827 0.025854569
0001e0 7e 5f cb bc f3 34 ba 3c a6 f5 99 bc f2 91 a0 3a
       -0.024825808 0.022730326 -0.018793892 0.0012250526
0001f0 cc 42 32 3c 87 27 e5 bc e9 82 31 3b 15 89 7a bd
       0.010880183 -0.02797295 0.0027086085 -0.061165888
000200 be 72 23 3c 9e c2 82 bd e9 87 f2 bc 00 5e 82 bd
       0.009976087 -0.063847765 -0.029605823 -0.06365585
000210 9b 00 18 3d f6 28 7f 3b 4a 3c 84 bc af 68 3a 3c
       0.037109952 0.0038934327 -0.01614203 0.011377498
000220 5a bc 61 bd 62 8f 77 bd 24 a0 14 bd 2e 30 09 3d
       -0.055111267 -0.060439475 -0.036285535 0.033493213
000230 fa 5e 85 b9 1e 9b e4 39 48 c0 d5 bc a5 40 14 3d
       -0.000254385 0.0004360312 -0.026092663 0.036194462
000240 2a c2 32 bd 0a 57 16 3d a6 36 0b 3c 14 2d e7 ba
       -0.0436422 0.0367041 0.008496916 -0.0017637336
000250 08 05 96 3b 17 fe 37 bd 8d 6f 36 bd 1a 3b 61 3d
       0.0045782365 -0.044920053 -0.044539977 0.054988004
000260 66 8d 68 3d ac e0 84 3b 4a f2 14 bd 4e 47 1a bd
       0.056775473 0.0040551033 -0.036363877 -0.037665658
000270 b2 97 2f 3d 07 c4 3a 3d a3 e6 f8 bc 25 51 af 3c
       0.042869277 0.045597102 -0.030383414 0.021400997
000280 b9 b3 06 bc 4a a0 e9 ba 98 39 b2 3b 2d 2c 18 bd
       -0.00822156 -0.0017824259 0.0054389946 -0.037151504
000290 98 de 54 3d 6e f5 74 bd 08 82 c0 bc d8 91 19 bd
       0.051970094 -0.059804372 -0.023499504 -0.037492603
0002a0 59 24 b9 3c 4a 21 53 3d 14 de cb 3c a0 d7 3b bd
       0.02260034 0.05154542 0.024886169 -0.045859933
0002b0 eb 58 98 3c 37 d7 38 bc d3 d0 3e 3d 25 02 31 bc
       0.018597087 -0.01128178 0.04658587 -0.010803734
0002c0 c9 3f 97 3c 56 31 a8 3c e7 a5 47 3d 09 94 bb 3b
       0.018463032 0.020531338 0.0487422 0.0057244343
0002d0 1e 6f 3b 3c f8 05 e8 3c 94 29 66 bd eb c1 a8 3a
       0.011440067 0.028323159 -0.056191996 0.0012875175
0002e0 59 c8 14 bd 85 d8 29 bd 15 45 0d 3d ac f4 36 3d
       -0.03632388 -0.041466255 0.03448971 0.04466693
0002f0 d0 bd e6 3c c1 f1 5f bc c6 68 3a bd bc 93 93 3c
       0.028166682 -0.0136684785 -0.045510076 0.018014781
000300 61 8e 27 3d 08 2b 27 3c d4 5a 9f bd 6f 3b 6c 3d
       0.040907267 0.010203131 -0.07780996 0.057673868
000310 e8 c7 5d 3c 67 b6 8b bd c2 e8 8f bc 31 27 42 bd
       0.013536431 -0.068219 -0.017567042 -0.047400657
000320 1c 92 84 bc b6 f0 2f 3c e8 de b5 bc 15 42 02 bd
       -0.016182952 0.010738542 -0.022201017 -0.031801302
000330 88 9b 79 bd dd 00 8e bd 77 51 4c 3c be df 0a bc
       -0.06093934 -0.069337584 0.012470595 -0.008476196
000340 4f 61 82 bc 78 3d 80 3c 10 96 bc bc 86 27 42 bc
       -0.015915541 0.01565431 -0.023020774 -0.011850243
000350 75 61 ad bb c3 78 8d bd 83 75 79 bd 1b 88 85 3c
       -0.005291159 -0.06907799 -0.060903084 0.016300252
000360 a0 24 09 3d 17 df 7a bd 6f 87 47 bc 3e 5b 85 bd
       0.033482194 -0.06124791 -0.012178286 -0.06511544
000370 2f 00 bc bc b5 59 70 bb 91 51 3b bd f5 e7 b4 bc
       -0.022949306 -0.0036674563 -0.045732085 -0.022083262
000380 2f f1 70 bd 8a 0b a2 bb 1e f7 95 bd 75 bf 09 3d
       -0.05882376 -0.004945223 -0.073225245 0.033629853
000390 d5 82 32 bd 32 36 0f 3c 54 78 9c bd 7b f4 1b bd
       -0.043581802 0.0087409485 -0.07640138 -0.03807495
0003a0 db 93 6c bd ca b7 0c bd c9 52 2f 3c 07 a9 2c 3d
       -0.057758193 -0.034354962 0.01070089 0.042153385
0003b0 65 3a 0b bd b8 14 f1 3c 9d 1e b4 bc a0 48 79 3c
       -0.033991236 0.029428825 -0.021987254 0.015215069
0003c0 a8 04 16 3d 46 9a 53 bb 4d 25 62 bd 30 ca a9 bc
       0.036625534 -0.0032288 -0.055211354 -0.020726293
0003d0 1f 6d cf 3c 40 3e 88 bd 27 ad 58 bd dc c5 be bc
       0.025320588 -0.06652498 -0.052899506 -0.023287706
0003e0 b9 41 80 bd 55 71 4d 3d 2c 64 4d 3d 71 cd 82 bd
       -0.062625356 0.05015691 0.05014436 -0.06386841
0003f0 20 13 0a bd a8 6c ea 3c e4 53 1f 3d 3d 87 02 3d
       -0.033709645 0.028616264 0.038898364 0.031867255
